results/saved_models/gru_1000.pt (torch, 274075 bytes, 8 tensors)

gru.weight_ih_l0 f4 [384, 34]
0.004333299 0.021034762 -0.0884325 0.0072853602 0.023352444 0.005711982 0.00047292077 -0.14410858
0.008692259 -0.07197575 0.12522511 0.043169588 -0.06316284 -0.010143533 0.090104364 0.06762987
-0.022866944 0.045897808 -0.009555785 0.06903954 -0.07618116 0.05865845 0.1475453 -0.008310935
-0.056880344 0.038327742 0.036080074 0.060837504 -0.00079979986 0.08922258 -0.04549024 0.038324006
0.0734224 0.039217733 0.042238798 0.029506676 -0.09141453 -0.0018704516 -0.007205943 0.025821138
-0.017181724 0.08329531 -0.120549835 0.03731872 -0.036851212 0.01915029 -0.035415675 -0.09336218
0.05660932 -0.052096486 -0.038506597 -0.051944587 -0.0076384656 0.0034088132 0.015871018 -0.024032833
0.07703525 -0.09164044 0.008076127 -0.11490449 -0.025387963 0.06143178 -0.13556148 0.08715531
0.11478328 0.07527502 0.009485127 0.09604165 -0.0060657877 -0.03811503 -0.031234238 0.011011268
-0.052235212 -0.09729143 -0.031221604 0.010116627 -0.05724225 0.053194076 -0.115733445 0.051183023
0.08224744 0.057002652 0.049043197 0.0651809 0.06909108 0.018429076 -0.09877392 -0.03419441
-0.055987358 -0.01418275 0.004355396 -0.013427816 -0.003919484 0.017666418 0.015168057 0.041254066
0.109083615 0.0394574 -0.14117944 -0.06070851 -0.076528795 0.02043094 0.08692035 0.0320547
0.15352245 -0.016103234 0.06874458 -0.04978967 0.057306755 -0.060485706 0.16006453 -0.07885433
0.074237995 -0.03222125 -0.011477008 -0.059523 0.0273094 -0.029594129 0.010660681 -0.04923815
0.1008737 0.106994726 0.10934229 -0.010959464 -0.004273499 0.003749027 0.1423364 0.11329058
0.029967234 0.015024969 0.074332945 -0.03158082 0.05456962 0.06981668 -0.0063091265 0.019760415
-0.10093576 0.006148192 -0.09785153 -0.12217978 -0.033806726 -0.120189056 -0.00016407133 -0.0727645
-0.07517279 -0.12364656 -0.016082238 -0.021426864 -0.11624426 -0.020016333 0.05283056 -0.093802534
-0.021805314 -0.08462087 -0.030250179 -0.06525717 -0.10994592 -0.07996429 -0.07738256 -0.04670971
-0.087698735 0.0009397076 -0.08976155 0.028837403 -0.12922338 -0.040588062 -0.09710596 -0.061116334
-0.09856743 0.07194761 -0.05877818 0.017486816 -0.025339942 -0.0929606 -0.06777351 0.011407556
-0.055958707 -0.021188816 -0.06900158 0.0016309328 -0.047125578 -0.108562335 0.014482593 -0.027129283
0.08047939 -0.07939665 0.060460947 0.06509807 0.043401733 -0.06533709 -0.10649985 -0.050129376
-0.03581466 0.019496327 -0.0866064 -0.10855161 -0.08033507 0.073885314 -0.0062352573 0.11407173
0.13193467 0.1366373 -0.053134594 -0.03337236 -0.07668231 -0.06428486 0.026596142 0.079963654
-0.032840155 0.08912519 -0.06801734 0.008009061 0.041468423 -0.017226292 0.073812775 0.101179615
-0.08357178 0.029068425 0.09598273 0.07566398 -0.003270254 -0.10622709 0.07464708 -0.10012015
-0.06340179 -0.0053576357 0.083781965 0.11938639 0.019114317 0.10034036 -0.020615796 0.099535786
0.0334197 0.036444508 0.14599659 -0.03724882 -0.027233506 -0.056339525 0.079847075 -0.016306095
-0.0021122291 -0.023377351 -0.06257468 0.015058328 0.05339357 0.025919108 -0.011720646 -0.08584982
0.08681213 -0.013633579 -0.027729271 -0.06581147 0.11926386 0.09936955 -0.08759502 -0.019446343
00000000: 59fe 8d3b 1851 ac3c 191c b5bd 08ba ee3b
00000010: a04d bf3c 942b bb3b 5af2 f739 3391 13be
00000020: fa69 0e3c 0668 93bd 033b 003e 98d2 303d
00000030: 855b 81bd 1031 26bc a388 b83d 8781 8a3d
00000040: 7553 bbbc 57ff 3b3d de8f 1cbc 9a64 8d3d
00000050: de04 9cbd d843 703d 1d16 173e 972a 08bc
00000060: 5dfb 68bd 8dfd 1c3d b3c8 133d bf30 793d
00000070: a9a9 51ba 54ba b63d f953 3abd a2f9 1c3d
00000080: 7c5e 963d c6a2 203d 9702 2d3d fcb7 f13c
00000090: 8b37 bbbd f129 f5ba d51f ecbb da86 d33c
000000a0: b0c0 8cbc bb96 aa3d d5e2 f6bd 84db 183d
000000b0: 4cf1 16bd 12e1 9c3c 0710 11bd ac34 bfbd
000000c0: 2ddf 673d 2063 55bd 18b9 1dbd d9c3 54bd
000000d0: 184c fabb 6566 5f3b f003 823c 81e0 c4bc
000000e0: a8c4 9d3d fcad bbbd bb51 043c 0c53 ebbd
000000f0: 6bfa cfbc e49f 7b3d a1d0 0abe 7c7e b23d
00000100: 7f13 eb3d ca29 9a3d 8267 1b3c 7cb1 c43d
00000110: 84c3 c6bb 811e 1cbd f2de ffbc 9b68 343c
00000120: 97f4 55bd bb40 c7bd 73c4 ffbc 36c0 253c
00000130: d976 6abd 08e2 593d a805 edbd 4aa5 513d
00000140: 5971 a83d 9d7b 693d 85e1 483d 907d 853d
00000150: a07f 8d3d 93f8 963c fb49 cabd 700f 0cbd
00000160: 0053 65bd c45e 68bc b6b7 8e3b 5800 5cbc
00000170: 046f 80bb 2ab9 903c 7183 783c 06fa 283d
00000180: 3b67 df3d 159e 213d 5891 10be 7da9 78bd
00000190: 21bb 9cbd c95e a73c 4c03 b23d ca4b 033d
000001a0: fd34 1d3e eeea 83bc f5c9 8c3d 41f0 4bbd
000001b0: 7dba 6a3d dcbf 77bd f5e7 233e 617e a1bd
000001c0: 170a 983d 6efa 03bd 100a 3cbc 64ce 73bd
000001d0: f6b7 df3c 636f f2bc 23aa 2e3c f1ad 49bd
000001e0: df96 ce3d 0d20 db3d daee df3d 538f 33bc
000001f0: b508 8cbb 3cb2 753b a2c0 113e e404 e83d
00000200: d87d f53c 4a2b 763c df3b 983d e45a 01bd
00000210: 6584 5f3d 0cfc 8e3d cabc cebb 98e0 a13c
00000220: 68b7 cebd c676 c93b 6266 c8bd 6439 fabd
00000230: ec78 0abd ae25 f6bd 900a 2cb9 8e05 95bd
00000240: 31f4 99bd 683a fdbd e6be 83bc 6487 afbc
00000250: 7811 eebd 4bf9 a3bc db64 583d 8b1b c0bd
00000260: 0fa1 b2bc b54d adbd 39cf f7bc 8da5 85bd
00000270: 542b e1bd 51c4 a3bd bf7a 9ebd ae52 3fbd
00000280: 659b b3bd b656 763a e7d4 b7bd 6b3c ec3c
00000290: 2253 04be ab3f 26bd 7ddf c6bd 1f55 7abd
000002a0: b9dd c9bd 4559 933d 64c1 70bd 8340 8f3c
000002b0: b695 cfbc 2162 bebd d7cc 8abd c2e6 3a3c
000002c0: f534 65bd 2b94 adbc b350 8dbd 06c5 d53a
000002d0: c006 41bd ee55 debd 6648 6d3c 3b3e debc
000002e0: 61d2 a43d b69a a2bd e6a5 773d 2352 853d
000002f0: 04c6 313d 74cf 85bd 981c dabd 7654 4dbd
00000300: 65b2 12bd c3b6 9f3c b25e b1bd 4e50 debd
00000310: b786 a4bd 2f51 973d 2151 ccbb 709e e93d
00000320: e219 073e a6ea 0b3e a9a3 59bd 75b1 08bd
00000330: 9d0b 9dbd c8a7 83bd 27e0 d93c fcc3 a33d
00000340: 6683 06bd 4587 b63d ad4c 8bbd 7038 033c
00000350: cbda 293d 271e 8dbc 272b 973d 4237 cf3d
00000360: ae27 abbd e820 ee3c 9892 c43d b7f5 9a3d
00000370: c251 56bb 978d d9bd 91e0 983d cb0b cdbd
00000380: ccd8 81bd 1b8f afbb e195 ab3d da80 f43d
00000390: a195 9c3c 3f7f cd3d 75e2 a8bc 6bd9 cb3d
000003a0: 18e3 083d d646 153d 2180 153e 3892 18bd
000003b0: cd18 dfbc 46c4 66bd dd86 a33d 5c94 85bc
000003c0: 536d 0abb dc81 bfbc 2727 80bd 35b7 763c
000003d0: 37b3 5a3d 4f54 d43c f407 40bc 08d2 afbd
000003e0: 8fca b13d 605f 5fbc 7f28 e3bc 2ac8 86bd
000003f0: 9c40 f43d 4382 cb3d 0565 b3bd f04d 9fbc

gru.weight_hh_l0 f4 [384, 128]
0.049509726 -0.058702778 -0.025986487 -0.1078936 0.09112264 0.08345058 -0.12552682 -0.13748696
0.030151486 0.18217358 0.022468349 0.07051679 0.06390267 -0.059278566 -0.10983141 0.15798686
0.0702637 -0.13665704 -0.12477836 0.093741216 -0.103742324 -0.039606236 -0.090291254 0.27221507
-0.15520392 0.19978799 0.11772224 0.013095425 0.009017229 -0.030939436 0.014977161 0.06607614
-0.009460593 0.062026452 -0.11125926 0.114451915 0.11997922 0.010581327 -0.042038605 -0.024537344
-0.15840551 0.07173064 -0.058795355 -0.07648427 -0.05791553 0.0034461645 0.06120334 0.038790207
-0.050253384 -0.11735921 0.00429963 0.10122113 -0.07903416 -0.15703394 0.073626846 -0.1167473
0.00482755 -0.001450628 0.025850074 0.094628386 -0.07228601 0.22877322 0.050312832 0.14260213
-0.11111397 -0.0705653 0.12795825 -0.36839154 0.06347107 0.13468175 -0.12631582 0.068272
0.22735447 0.16627976 -0.13291499 0.09036335 0.06452939 -0.20205541 -0.05349667 0.043859575
0.0018167109 -0.09465377 0.026747905 0.038872294 0.1159549 0.09484908 0.080052786 -0.10673678
0.030682523 -0.06947129 -0.034760375 -0.1900967 -0.02813204 0.009740543 -0.09935761 -0.081952065
-0.055806074 0.046972565 -0.2680221 0.13445947 0.025769338 0.009640708 -0.019181948 -0.17731403
-0.04612447 0.04237449 0.052276563 0.11021239 0.09982818 0.113880716 0.020127524 0.07390638
-0.12193033 -0.07322142 0.022206213 0.045774475 0.014479264 -0.18645872 -0.01698231 0.09191256
-0.0970288 -0.025626328 0.0004782384 -0.074378185 0.10885325 0.08420674 -0.22496898 -0.06772134
-0.078918256 0.013270474 -0.052081775 0.055948574 -0.0237473 0.07280943 0.08207812 -0.022349179
0.001990235 0.0013962568 -0.07084508 0.10459233 0.1503068 -0.098576665 -0.0132717155 -0.013150276
0.070337914 0.024686655 0.09838876 0.0032473654 -0.022763502 0.006990767 0.039244827 0.07752073
0.014282577 0.04700362 0.05861402 -0.05108721 0.027924996 0.051094007 0.0916504 0.10328198
0.056685794 -0.057878 0.012791483 0.041622225 0.035421364 -0.005987802 0.02120302 -0.105360314
-0.12967241 0.05598225 -0.08717141 -0.043474562 0.026993008 -0.068080716 -0.057246894 0.04543727
0.071232565 -0.047878433 0.088264145 -0.03383124 -0.06163626 -0.020840334 0.03899975 -0.030478347
0.06080427 0.1025723 0.038569048 0.10344138 0.07121301 -0.018657377 -0.098895945 0.018078554
0.0587084 0.065480374 0.10898269 0.04775537 -0.12459808 0.026760014 0.0021163838 0.06878659
-0.04458295 -0.027047709 -0.0027495276 0.019853083 -0.12647845 -0.005118209 0.03256753 -0.0142233
0.04464503 -0.052296642 -0.071145 0.10506448 0.022889415 0.05129742 -0.014498332 -0.07928824
0.06209225 0.004156757 0.019255314 0.052804306 0.055434253 0.027181728 -0.14795426 -0.051384963
0.009786726 0.11475523 0.04361182 0.11122084 0.09832178 0.019666469 -0.012892644 -0.07146238
-0.008047879 0.0066133672 0.0157731 -0.12428558 -0.09643586 0.064453185 -0.047293156 0.0069741947
0.1308175 -0.015541143 0.09031218 -0.060717188 -0.064819574 -0.04948341 -0.03651828 -0.07504311
-0.022836568 -0.12137608 0.05713501 -0.12285158 -0.051631134 0.041019466 0.07781046 0.006841591
00000000: b6ca 4a3d 5372 70bd 9de1 d4bc 52f7 dcbd
00000010: 829e ba3d 23e8 aa3d 1a8a 00be 62c9 0cbe
00000020: 4000 f73c b68b 3a3e 8b0f b83c 1b6b 903d
00000030: 67df 823d 15ce 72bd 4aef e0bd 4fc7 213e
00000040: 6ae6 8f3d d3ef 0bbe cc8b ffbd 65fb bf3d
00000050: db76 d4bd 263a 22bd 9fea b8bd c65f 8b3e
00000060: c7ed 1ebe 3995 4c3e 5c18 f13d 328e 563c
00000070: 00bd 133c b374 fdbc c462 753c ed52 873d
00000080: 9a00 1bbc 730f 7e3d e5db e3bd c465 ea3d
00000090: aab7 f53d 4d5d 2d3c ac30 2cbd 8a02 c9bc
000000a0: 0e35 22be 84e7 923d 66d3 70bd c9a3 9cbd
000000b0: d638 6dbd 0cd9 613b 5ab0 7a3d 7be2 1e3d
000000c0: 7ed6 4dbd 075a f0bd e9e3 8c3b 064d cf3d
000000d0: a9dc a1bd 81cd 20be acc9 963d 3519 efbd
000000e0: 6d30 9e3b 0023 beba 89c3 d33c 87cc c13d
000000f0: b00a 94bd 8743 6a3e d414 4e3d 4b06 123e
00000100: b98f e3bd 8a84 90bd 7d07 033e d19d bcbe
00000110: 1ffd 813d 03ea 093e ef58 01be 31d2 8b3d
00000120: 9ccf 683e 3e45 2a3e de1a 08be 6c10 b93d
00000130: fc27 843d 9de7 4ebe 531f 5bbd 19a6 333d
00000140: b41e ee3a d6d9 c1bd 6c1e db3c 8e38 1f3d
00000150: c379 ed3d 3c40 c23d b7f2 a33d d098 dabd
00000160: ea59 fb3c f746 8ebd e560 0ebd b6a8 42be
00000170: 2a75 e6bc cc96 1f3c 017c cbbd 7cd6 a7bd
00000180: e994 64bd 4e66 403d 313a 89be beaf 093e
00000190: 381a d33c 0ff4 1d3c 7623 9dbc cf91 35be
000001a0: 03ed 3cbd e090 2d3d f31f 563d 09b7 e13d
000001b0: b872 cc3d 4b3a e93d 7ae2 a43c 3a5c 973d
000001c0: 9cb6 f9bd 1df5 95bd cee9 b53c 047e 3b3d
000001d0: 6f3a 6d3c 09ef 3ebe 7c1e 8bbc a73c bc3d
000001e0: 09b7 c6bd 4eee d1bc 12bc fa39 9753 98bd
000001f0: 74ee de3d 9574 ac3d 455e 66be 7cb1 8abd
00000200: e59f a1bd 676c 593c b353 55bd 552a 653d
00000210: b389 c2bc 1c1d 953d 9318 a83d a015 b7bc
00000220: 9a6e 023b 9b02 b73a 3a17 91bd 8134 d63d
00000230: 07ea 193e 90e2 c9bd 9c71 59bc 4174 57bc
00000240: 530d 903d ab3b ca3c 0c80 c93d c0d1 543b
00000250: 867a babc ce12 e53b 2fbf 203d 30c3 9e3d
00000260: 7801 6a3c de86 403d 4115 703d d340 51bd
00000270: f6c2 e43c f347 513d 34b3 bb3d 8185 d33d
00000280: 5d2f 683d 7b11 6dbd 5e93 513c 117c 2a3d
00000290: fe15 113d 5335 c4bb f5b1 ad3c 26c7 d7bd
000002a0: d8c8 04be a54d 653d ed86 b2bd 6212 32bd
000002b0: 7120 dd3c e76d 8bbd b87b 6abd 6e1c 3a3d
000002c0: 61e2 913d 2d1c 44bd d5c3 b43d a092 0abd
000002d0: 4e76 7cbd 59b9 aabc 34be 1f3d baad f9bc
000002e0: e60d 793d 6d11 d23d 94fa 1d3d 13d9 d33d
000002f0: 20d8 913d 5bd7 98bc f589 cabd 7a19 943c
00000300: 3878 703d 931a 863d 5132 df3d 239b 433d
00000310: 472d ffbd d137 db3c 07b3 0a3b fcdf 8c3d
00000320: 9d9c 36bd 2893 ddbc 6b31 34bb efa2 a23c
00000330: 9183 01be a6b6 a7bb 8865 053d d808 69bc
00000340: b5dd 363d 0135 56bd 78b4 91bd 0c2c d73d
00000350: 9582 bb3c 3e1d 523d 698a 6dbc df61 a2bd
00000360: 7154 7e3d 6835 883b 52bd 9d3c 5449 583d
00000370: 070f 633d 37ac de3c 5281 17be 0a79 52bd
00000380: 8158 203c ca04 eb3d 4fa2 323d c0c7 e33d
00000390: ee5c c93d 931b a13c ab3b 53bc de5a 92bd
000003a0: 40db 03bc f2b4 d83b 9736 813c 7089 febd
000003b0: 2a80 c5bd 0800 843d 78b6 41bd c987 e43b
000003c0: 06f5 053e 47a0 7ebc 98f5 b83d 96b2 78bd
000003d0: 20c0 84bd 1eaf 4abd 3194 15bd 34b0 99bd
000003e0: c113 bbbc 0694 f8bd 6606 6a3d 9c99 fbbd
000003f0: 2b7b 53bd 0704 283d 175b 9f3d 6d2f e03b

gru.bias_ih_l0 f4 [384]
-0.043311696 0.019388797 0.044711825 -0.03342946 0.013251893 0.025536902 -0.026215542 -0.046163492
-0.0033281741 -0.016895033 0.055758346 0.079657786 -0.1099342 0.03932442 -0.034539882 0.107626915
0.09809048 0.026875632 -0.049329408 0.05693182 -0.043982033 0.02856282 0.068504944 -0.064543426
-0.017764352 -0.011664266 -0.0040582498 0.07618354 0.018637573 0.09651236 -0.045175638 -0.047103424
-0.04664839 0.035891917 0.021014143 0.10362683 0.018449044 0.06601189 0.0771864 -0.05273605
0.039035942 0.046787903 0.017015096 0.030691817 -0.021790389 -0.02183113 0.047839746 0.030788565
-0.023015423 0.029123252 0.06521254 0.092607826 -0.02369832 -0.0071130893 0.004821659 -0.030391874
-0.08124049 0.011950244 0.11121275 0.048757225 0.0669089 0.03451993 0.09843909 0.051742166
-0.031098742 -0.037015792 -0.09643927 0.08277943 0.09321629 -0.06369889 0.06263037 0.11891018
-0.010988939 0.025457202 0.111063585 0.085924156 0.095944285 -0.014580416 0.008840417 -0.045166567
-0.086188264 -0.03525189 0.023161996 0.009148804 0.03969362 -0.096474566 0.12586239 0.12211077
0.07373431 0.063253276 -0.05591232 -0.0024512191 0.045178812 -0.08630033 0.06403297 -0.07599201
0.06255899 -0.010812336 0.0011806992 -0.12474361 -0.044077523 -0.069859825 -0.042362917 0.04700775
0.00061318267 -0.021686802 0.025989406 0.110606216 0.08914509 0.035585895 -0.039466284 0.03808938
-0.030114524 0.044264365 0.096719034 -0.02574882 0.04521253 -0.05567271 -0.038398035 0.055505104
0.082489125 0.06556733 0.15000637 0.42307416 -0.025788473 -0.042561978 0.12794526 0.09865601
0.021719037 0.17067504 -0.037427887 -0.061065502 -0.016215356 0.09861977 -0.04695661 -0.059797414
-0.01671613 0.14503662 -0.08454374 -0.02859841 -0.047615696 -0.011013057 -0.027163887 0.0743229
-0.070972055 -0.012300927 -0.08485916 0.0038601374 0.14723729 -0.043687824 0.048440587 -0.42979464
0.058719892 -0.39721736 0.05795501 -0.12788637 -0.06605998 0.043912932 0.051180873 -0.06861944
-0.11580946 -0.0028679424 0.0104655875 0.27051196 0.01794557 -0.23580411 -0.1293837 0.041249767
-0.0067499406 -0.093993194 -0.01591542 -0.027822426 -0.035905365 -0.023039857 -0.03542374 -0.039729685
-0.02789321 -0.043219358 -0.12140337 -0.15829815 -0.121794805 0.026515035 0.006471995 0.053476647
0.08450417 -0.06242019 0.1090184 -0.14642347 0.10017329 0.05665736 -0.045902487 0.049963158
-0.13120484 -0.16505523 -0.0064183064 0.1203878 -0.053762637 0.084104426 0.05078729 -0.22585292
-0.011813102 -0.17079985 0.022793228 -0.21752833 -0.045817852 -0.29398325 -0.085978836 0.015408165
-0.12317307 -0.034589652 -0.038604714 -0.05714077 -0.0865138 -0.04519245 0.09389151 -0.049554214
0.06222063 0.12524143 -0.05184674 -0.14840963 0.11864324 0.059234384 -0.13269453 0.036551494
0.21337146 -0.0078245485 -0.09388546 -0.0039827977 -0.105487235 -0.023107436 -0.017207373 0.021527365
0.067790344 0.075990096 0.008678376 0.08559668 0.0024951878 -0.07806905 0.101065576 -0.07367278
-0.08856056 -0.26282626 -0.09979261 -0.015130636 -0.16680177 0.05989086 0.096969284 0.11559578
-0.18877454 0.1177459 0.10624803 -0.054975837 -0.0002668317 -0.07016626 0.08566442 -0.009413391
00000000: 9b67 31bd 41d5 9e3c bf23 373d 54ed 08bd
00000010: 781e 593c c432 d13c fac1 d6bc ee15 3dbd
00000020: 7f1d 5abb 7467 8abc dd62 643d 9f23 a33d
00000030: 2f25 e1bd a512 213d b179 0dbd 806b dc3d
00000040: a9e3 c83d 492a dc3c a20d 4abd 5731 693d
00000050: 8126 34bd 93fc e93c 524c 8c3d 582f 84bd
00000060: 8c86 91bc 7a1b 3fbc 11fb 84bb 1e06 9c3d
00000070: d3ad 983c 46a8 c53d 170a 39bd 85ef 40bd
00000080: 6212 3fbd 6703 133d da25 ac3c 4e3a d43d
00000090: 7322 973c 3e31 873d e713 9e3d c201 58bd
000000a0: 27e4 1f3d aca4 3f3d 3e63 8b3c 686d fb3c
000000b0: c281 b2bc 33d7 b2bc 9cf3 433d 4d38 fc3c
000000c0: d78a bcbc e393 ee3c 278e 853d 2ca9 bd3d
000000d0: fb22 c2bc eb14 e9bb 02ff 9d3b 61f8 f8bc
000000e0: 6a61 a6bd f5ca 433c 83c3 e33d a8b5 473d
000000f0: 8907 893d c564 0d3d 6f9a c93d 98ef 533d
00000100: cac2 febc df9d 17bd f481 c5bd 4388 a93d
00000110: 2fe8 be3d 9074 82bd 5a44 803d 2e87 f33d
00000120: f30a 34bc 9f8b d03c 4e75 e33d 01f9 af3d
00000130: 707e c43d b2e2 6ebc 65d7 103c 9400 39bd
00000140: 7983 b0bd 4964 10bd 3abe bd3c dde4 153c
00000150: c795 223d 7594 c5bd 12e2 003e 3615 fa3d
00000160: 0402 973d ef8a 813d 5104 65bd a2a4 20bb
00000170: 6b0d 393d 3abe b0bd b823 833d b3a1 9bbd
00000180: ee1e 803d 3926 31bc b1c1 9a3a 9479 ffbd
00000190: a28a 34bd ab12 8fbd bd84 2dbd 338b 403d
000001a0: febd 203a 85a8 b1bc bce7 d43c 8385 e23d
000001b0: b391 b63d 84c2 113d 66a7 21bd 9c03 1c3d
000001c0: bcb2 f6bc 8d4e 353d a114 c63d 30ef d2bc
000001d0: c630 393d 1109 64bd 4247 1dbd 5259 633d
000001e0: 0ff0 a83d 2a48 863d 459b 193e 2d9d d83e
000001f0: 5942 d3bc 7855 2ebd 1504 033e 2a0c ca3d
00000200: 1fec b13c 70c5 2e3e fc4d 19bd d21f 7abd
00000210: 11d6 84bc 29f9 c93d 9355 40bd 22ee 74bd
00000220: 44f0 88bc 7b84 143e 4525 adbd 3647 eabc
00000230: ad08 43bd 1c70 34bc cd86 debc 9b36 983d
00000240: cc59 91bd d489 49bc a4ca adbd 5cfa 7c3b
00000250: 5fc5 163e 01f2 32bd a369 463d 0b0e dcbe
00000260: 4584 703d 1360 cbbe 3c62 6d3d a5f4 02be
00000270: 744a 87bd 0cde 333d 09a3 513d 5988 8cbd
00000280: 832d edbd 17f4 3bbb db77 2b3c 8b80 8a3e
00000290: 9702 933c a276 71be 297d 04be 84f5 283d
000002a0: 9b2e ddbb 817f c0bd 0e61 82bc dbeb e3bc
000002b0: 8111 13bd 15be bcbc 7c18 11bd 98bb 22bd
000002c0: 4d80 e4bc c806 31bd 54a2 f8bd e918 22be
000002d0: 8e6f f9bd 0f36 d93c 0713 d43b 540a 5b3d
000002e0: 8610 ad3d 50ac 7fbd 0a45 df3d 09f0 15be
000002f0: a727 cd3d 8c11 683d 3f04 3cbd 2ba6 4c3d
00000300: 905a 06be 3d04 29be a850 d2bb e18d f63d
00000310: 3636 5cbd f13e ac3d 5506 503d fd45 67be
00000320: be8b 41bc 28e6 2ebe ddb8 ba3c bfbf 5ebe
00000330: 80ab 3bbd f984 96be ac15 b0bd 8772 7c3c
00000340: 2a42 fcbd e1ad 0dbd fa1f 1ebd 710c 6abd
00000350: 262e b1bd b81b 39bd 314a c03d 5cf9 4abd
00000360: 0fdb 7e3d 4a3f 003e 3f5d 54bd b2f8 17be
00000370: 3afb f23d c19f 723d 13e1 07be 05b7 153d
00000380: 0c7e 5a3e 8932 00bc 0547 c0bd 2182 82bb
00000390: b109 d8bd ce4b bdbc 7af6 8cbc 285a b03c
000003a0: aad5 8a3d b2a0 9b3d bf2f 0e3c 504d af3d
000003b0: 4e86 233b abe2 9fbd 78fb ce3d c1e1 96bd
000003c0: 3d5f b5bd 2a91 86be 1160 ccbd 7de6 77bc
000003d0: 15ce 2abe 1e50 753d d597 c63d 7bbd ec3d
000003e0: 1d4e 41be c324 f13d 9198 d93d 582e 61bd
000003f0: 8be5 8bb9 54b3 8fbd d470 af3d a03a 1abc

gru.bias_hh_l0 f4 [384]
0.07783886 0.060661733 0.07259859 -0.08521434 -0.10800406 -0.03384845 0.035770826 0.047969993
0.16596287 -0.03519245 0.05090102 -0.015185948 0.041041687 -0.023154628 0.009180407 0.05968623
-0.06273359 -0.026070304 -0.008768285 -0.07302735 -0.06922478 -0.04767731 0.0791948 -0.004601084
-0.004805172 -0.004970406 0.034680888 -0.012079313 0.07559248 0.029529633 0.08760755 -0.020973412
-0.0914921 0.07313429 -0.03530458 0.12844416 0.063052475 0.039741095 0.06963661 -0.01908143
0.05423343 0.030871058 -0.04061821 -0.067816265 0.070943065 0.07795319 0.059273064 0.037548415
0.016555162 0.06961945 -0.019832533 0.060774677 -0.067579135 -0.009465921 0.110688426 0.013699654
0.009861127 0.014244555 0.124980114 -0.044723954 0.083119564 0.050908785 0.18063654 0.021832176
-0.08112187 0.05758215 0.030320529 0.027388623 0.06562135 0.032830756 -0.076163836 0.069290206
-0.049116865 -0.033263464 0.0105979955 -0.08231185 -0.028502328 0.08096342 0.064614415 0.04073738
0.020570124 0.023343006 -0.035718624 0.064778574 0.13325053 0.01872393 0.07177878 0.1592016
0.06471414 0.012370694 -0.055151265 -0.0122833485 0.08472091 -0.007269474 0.030920193 0.06158497
0.004437598 0.03535283 0.060542636 0.01577627 0.04300142 0.073056586 -0.0006366378 0.027585391
0.01499525 0.10542212 -0.09136594 0.057366617 0.027406918 -0.008978705 -0.013420599 -0.013794598
-0.0040397556 0.09134589 0.09002206 0.012301197 0.09767977 0.029809942 0.10703138 -0.02781303
-0.019522209 0.06303427 0.14989378 0.3778167 0.13568084 -0.027042951 0.016898083 -0.026657354
0.10082915 0.11442441 0.049571548 0.04993745 -0.0887481 -0.03895898 -0.079311594 -0.048410736
-0.12188635 0.10508496 -0.08945782 0.004616504 -0.02963396 -0.09101521 -0.019354317 0.032010105
-0.12571818 0.077447385 -0.1596731 -0.07029857 0.13393137 -0.051776104 0.14781347 -0.47133392
0.05816538 -0.45014057 0.019360512 -0.11761275 -0.07344625 0.0030299183 0.14831102 0.007871321
-0.13136739 0.0011705975 0.04772267 0.15131457 -0.095057726 -0.22770886 0.021923343 0.011333616
-0.07628268 -0.068368204 -7.656431e-06 0.027190596 0.0044283303 -0.0058951112 -0.0984366 -0.014356055
0.03897177 -0.0462184 -0.15343991 -0.014587591 0.0068048206 0.035131685 0.03125331 0.04084777
-0.031801697 -0.042454246 0.105599076 -0.110879615 0.043599267 0.14264862 -0.035382327 -0.01569074
-0.16311577 -0.14914474 -0.14790793 0.06326185 -0.038377497 -0.046136726 -0.021800362 -0.20605993
0.07109535 -0.055390306 -0.00046643306 -0.1932649 -0.03784633 -0.25990126 -0.09455741 0.05885065
-0.07866031 -0.066917844 -0.014757353 -0.025422243 -0.05690478 0.019007506 0.11691557 -0.0060513797
-0.04189953 0.025120623 0.01689782 -0.089233406 0.17368066 -0.039858907 -0.00518973 -0.016764728
0.23009682 0.13344851 0.013379103 0.0030920205 -0.12747754 -0.01859865 -0.03476917 -0.04385392
0.040366687 0.030127548 -0.002942723 0.058085945 0.049106352 -0.08359613 0.015337437 -0.15267745
0.049134664 -0.2832322 -0.10738759 0.015788954 -0.14470525 0.081228465 -0.022685682 0.13396646
-0.20089601 0.12336703 -0.02984966 -0.118008636 0.045770463 -0.08070741 0.047632866 0.008556775
00000000: fb69 9f3d 7078 783d 92ae 943d db84 aebd
00000010: 3c31 ddbd aca4 0abd 6e84 123d 2f7c 443d
00000020: 2cf2 293e f525 10bd 977d 503d 7cce 78bc
00000030: 541b 283d c6ae bdbc 6b69 163c 8c79 743d
00000040: 787a 80bd 6491 d5bc daa8 0fbc 5d8f 95bd
00000050: b9c5 8dbd 4849 43bd e230 a23d b1c4 96bb
00000060: b474 9dbb cade a2bb 8c0d 0e3d 50e8 45bc
00000070: 3bd0 9a3d 21e8 f13c 966b b33d 6fd0 abbc
00000080: 3660 bbbd 6ec7 953d 899b 10bd de86 033e
00000090: a821 813d 8fc7 223d a49d 8e3d a950 9cbc
000000a0: e023 5e3d 4de5 fc3c 485f 26bd 41e3 8abd
000000b0: 994a 913d eca5 9f3d 50c8 723d 5ecc 193d
000000c0: b19e 873c a494 8e3d d677 a2bc deee 783d
000000d0: ee66 8abd f316 1bbc 9db0 e23d 8374 603c
000000e0: 9090 213c fe61 693c 93f5 ff3d 7730 37bd
000000f0: 973a aa3d bb85 503d c9f8 383e 64d9 b23c
00000100: 3923 a6bd 43db 6b3d c262 f83c 1b5e e03c
00000110: 7d64 863d 8b79 063d c9fb 9bbd 06e8 8d3d
00000120: c42e 49bd 453f 08bd 37a3 2d3c 1d93 a8bd
00000130: b77d e9bc 26d0 a53d 9054 843d 3ddc 263d
00000140: ad82 a83c d539 bf3c b14d 12bd a1aa 843d
00000150: d472 083e ed62 993c c100 933d bf05 233e
00000160: d988 843d 74ae 4a3c 4be6 61bd 1940 49bc
00000170: 2882 ad3d c534 eebb 584c fd3c 8640 7c3d
00000180: 4569 913b 21ce 103d 8efb 773d 3c3d 813c
00000190: 4222 303d b19e 953d 0ae4 26ba c2fa e13c
000001a0: a3ae 753c 8de7 d73d 111e bbbd 42f9 6a3d
000001b0: 7984 e03c 6b1b 13bc 12e2 5bbc bd02 62bc
000001c0: ed5f 84bb 8e13 bb3d 7c5d b83d f68a 493c
000001d0: 550c c83d fb33 f43c 4533 db3d 27d8 e3bc
000001e0: 0aed 9fbc 1d18 813d c17d 193e 3171 c13e
000001f0: ebef 0a3e 2e89 ddbc d96d 8a3c 8660 dabc
00000200: 837f ce3d 5857 ea3d 890b 4b3d 368b 4c3d
00000210: 90c1 b5bd 7493 1fbd 1e6e a2bd 564a 46bd
00000220: 8d9f f9bd c936 d73d a935 b7bd 0b46 973b
00000230: ebc2 f2bc 2f66 babd f28c 9ebc 071d 033d
00000240: 44bc 00be bc9c 9e3d 5881 23be b2f8 8fbd
00000250: 4e25 093e 2e13 54bd 6a5c 173e ae52 f1be
00000260: d23e 6e3d d378 e6be f099 9e3c f4de f0bd
00000270: fd6a 96bd 9891 463b d8de 173e b7f6 003c
00000280: 2c85 06be bc6e 993a d978 433d 35f2 1a3e
00000290: a0ad c2bd 832c 69be 9598 b33c a2b0 393c
000002a0: 183a 9cbd a104 8cbd 1f74 00b7 d0be de3c
000002b0: 871b 913b c72b c1bb 2199 c9bd a935 6bbc
000002c0: dda0 1f3d 814f 3dbd 5a1f 1dbe cb00 6fbc
000002d0: f9fa de3b 3ee6 0f3d 7903 003d fe4f 273d
000002e0: 7f42 02bd 81e4 2dbd 5444 d83d da14 e3bd
000002f0: 2595 323d 7b12 123e 0fed 10bd de89 80bc
00000300: d207 27be 66b9 18be 2d75 17be 6e8f 813d
00000310: b931 1dbd ddf9 3cbd ac96 b2bc 6001 53be
00000320: 709a 913d f2e0 62bd 968b f4b9 3ce7 45be
00000330: c104 1bbd c711 85be 51a7 c1bd 610d 713d
00000340: a818 a1bd 390c 89bd d3c8 71bc 4f42 d0bc
00000350: fd14 69bd a1b5 9b3c 6e71 ef3d a74a c6bb
00000360: d79e 2bbd c4c9 cd3c 4c6d 8a3c 01c0 b6bd
00000370: 58d9 313e 1843 23bd 9c0e aabb 2f56 89bc
00000380: 809e 6b3e baa6 083e 0634 5b3c 7fa3 4a3b
00000390: 7989 02be 325c 98bc 1e6a 0ebd 2ba0 33bd
000003a0: 8a57 253d 0cce f63c b3da 40bb 87eb 6d3d
000003b0: be23 493d 7334 abbd e049 7b3c 7a57 1cbe
000003c0: 6e41 493d d003 91be 06ee dbbd d657 813c
000003d0: 9d2d 14be 1c5b a63d 53d7 b9bc 812e 093e
000003e0: afb7 4dbe daa7 fc3d 4687 f4bc 83ae f1bd
000003f0: cf79 3b3d ed49 a5bd ae1a 433d b731 0c3c

fc_forecast.weight f4 [34, 128]
-0.00898155 -0.11390495 -0.054522246 -0.044788532 0.080159664 0.04711262 0.04484142 -0.09671692
0.07751688 0.03486769 0.07386197 0.023256838 -0.12142529 0.013507385 0.019110616 -0.07451239
-0.16166161 -0.011405986 -0.14522888 0.03599268 -0.05817502 -0.079596266 -0.27002794 -0.1296692
0.05128451 -0.04078966 -0.25701952 0.11883399 -0.093574345 0.019924188 -0.14165038 0.21359208
0.13577046 -0.013915304 -0.108939074 -0.006520494 0.06692871 0.12777478 -0.10077285 -0.04590644
-0.14066476 -0.1802333 -0.0149157625 -0.110861756 -0.15568036 -0.01851762 -0.06328666 -0.0175635
-0.06572678 0.01906983 0.20048091 0.016404733 0.11775675 0.105991855 0.22261341 0.075391985
0.03356263 -0.12139033 -0.036810923 -0.075036414 0.037492123 0.060537588 -0.0051019653 0.052149918
-0.2214108 -0.002659222 -0.07930059 -0.008899994 0.030219 0.23311305 0.055688266 -0.04769852
-0.1968 -0.082504794 -0.048456818 0.16569282 0.10149977 0.05310814 -0.047578428 -0.04797685
0.041001964 0.02260977 -0.090169355 -0.019550255 0.038159452 0.1458948 0.062227294 -0.0025301233
-0.00031553357 -0.049760226 -0.09700398 0.013240926 0.036195826 -0.13782018 0.20614152 -0.08386876
0.13413128 -0.029080069 0.0064383303 -0.11363179 -0.01957468 0.112186246 0.0914331 -0.12788203
0.07305453 -0.07905642 0.13261604 0.091767915 -0.06308572 -0.10859392 -0.051097 -0.06917558
-0.0421736 -0.059567597 -0.01605915 -0.2439284 -0.004005652 0.084419355 7.779431e-05 -0.050017778
-0.014974763 -0.031297736 -0.06001945 0.012647626 0.058341246 0.008013507 0.10843501 -0.023290057
0.05074471 -0.026178816 -0.03560395 -0.11314272 0.088952035 -0.029857352 0.056064386 -0.027751433
0.051958658 0.1304209 0.02389359 0.018174076 -0.45081815 0.015562564 -0.0067138793 -0.07793869
0.046769664 0.11142856 -0.023083009 0.27518466 -0.09187787 -0.042741776 -0.009997797 -0.23113535
-0.10109189 -0.15392394 -0.045713436 -0.005932189 0.0807692 -0.047843907 -0.115785554 -8.780463e-06
-0.064815894 -0.062125947 -0.11082262 -0.1703575 0.057836737 0.037972376 -0.089357145 -0.05881142
-0.24044359 -0.12368223 -0.055718873 -0.01678553 0.028557172 -0.11505026 -0.09568477 0.08011354
0.023664817 0.01321728 -0.12778074 0.005024919 -0.18714844 0.090116195 0.009467662 0.239972
0.057470758 -0.04775116 0.0010166512 -0.00087648607 -0.025528137 -0.015310214 -0.030909952 -0.080112204
-0.094770305 0.17614038 -0.006888964 -0.124547414 -0.123045124 0.07204296 0.2881633 0.051286656
-0.051837116 -0.008405069 -0.016998677 0.08787164 0.0066972426 0.11496737 0.0102306 -0.08457394
0.0444019 -0.04013945 -0.12305198 0.06758959 0.058018304 0.06891977 0.0877923 0.026065705
0.031075144 -0.047458604 0.024698922 -0.07119006 -0.089963615 -0.17359692 -0.0880699 -0.12652943
0.15162393 -0.039245863 0.0046092235 -0.012901784 0.053910308 0.18169047 0.0776121 -0.07178868
0.023389287 0.010273715 0.25983706 -0.029743476 0.08264608 0.1493265 -0.024773195 0.0152241215
0.012390834 0.024923947 -0.0807617 -0.040607866 -0.07903846 0.004504669 -0.036586087 0.1458874
0.08780918 0.029882358 -0.08186574 0.010833742 0.08541156 -0.016212136 0.109406725 -0.1353635
00000000: 5a27 13bc 0047 e9bd b852 5fbd 2e74 37bd
00000010: c02a a43d 2af9 403d a3ab 373d 8513 c6bd
00000020: 2cc1 9e3d 6cd1 0e3d f244 973d 2085 be3c
00000030: d3ad f8bd 144e 5d3c de8d 9c3c f499 98bd
00000040: 9f8a 25be 2ce0 3abc e1b6 14be 0f6d 133d
00000050: ee48 6ebd 5e03 a3bd 1a41 8abe 01c8 04be
00000060: b50f 523d 0f13 27bd 1098 83be 3c5f f33d
00000070: e8a3 bfbd 0d38 a33c cc0c 11be e2b7 5a3e
00000080: 6907 0b3e 04fd 63bc 731b dfbd dea9 d5bb
00000090: eb11 893d 64d7 023e ff61 cebd 6408 3cbd
000000a0: 6c0a 10be 148f 38be 3e61 74bc 7d0b e3bd
000000b0: ac6a 1fbe 44b2 97bc 709c 81bd 54e1 8fbc
000000c0: c39b 86bd 5538 9c3c de4a 4d3e 3863 863c
000000d0: 732a f13d 4212 d93d c5f4 633e 1d67 9a3d
000000e0: f878 093d 7e9b f8bd 0dc7 16bd b1ac 99bd
000000f0: 5791 193d 43f6 773d 632e a7bb 279b 553d
00000100: 83b9 62be 5846 2ebb 5968 a2bd 48d1 11bc
00000110: d68d f73c 30b5 6e3e 6119 643d 865f 43bd
00000120: f085 49be 46f8 a8bd a87a 46bd 61ab 293e
00000130: 1ddf cf3d ec87 593d 99e1 42bd 6083 44bd
00000140: adf1 273d 2038 b93c b6aa b8bd db27 a0bc
00000150: 164d 1c3d 7265 153e 0ce2 7e3d 6dd0 25bb
00000160: 336e a5b9 61d1 4bbd 06aa c6bd 78f0 583c
00000170: 1342 143d bc20 0dbe c316 533e 62c3 abbd
00000180: b659 093e 5339 eebc a1f8 d23b c9b7 e8bd
00000190: 145b a0bc e7c1 e53d 4741 bb3d 82f3 02be
000001a0: 9d9d 953d 55e8 a1bd 80cc 073e d1f0 bb3d
000001b0: 1633 81bd 7d66 debd 164b 51bd edab 8dbd
000001c0: 3abe 2cbd 27fd 73bd 7b8e 83bc 5ec8 79be
000001d0: d841 83bb 0ee4 ac3d 8125 a338 71df 4cbd
000001e0: b558 75bc 0e32 00bd f4d6 75bd fd37 4f3c
000001f0: 3bf7 6e3d 164b 033c 2d13 de3d caca bebc
00000200: afd9 4f3d f574 d6bc 73d5 11bd 5fb7 e7bd
00000210: 7c2c b63d 6897 f4bc c5a3 653d f956 e3bc
00000220: 9ad2 543d 0e8d 053e 7dbc c33c cde1 943c
00000230: a3d1 e6be 20fa 7e3c 1a00 dcbb 529e 9fbd
00000240: 8c91 3f3d a834 e43d 9418 bdbc 01e5 8c3e
00000250: 772a bcbd 0012 2fbd cdcd 23bc bfae 6cbe
00000260: 4409 cfbd 3d9e 1dbe 033e 3bbd cf62 c2bb
00000270: 536a a53d f9f7 43bd fa20 edbd cd4f 13b7
00000280: 32be 84bd c777 7ebd f8f6 e2bd 3272 2ebe
00000290: 37e6 6c3d ec88 1b3d e100 b7bd 3ee4 70bd
000002a0: d836 76be 1c4d fdbd 7939 64bd cf81 89bc
000002b0: bbf0 e93c 799f ebbd 60f6 c3bd 9112 a43d
000002c0: b8dc c13c 4a8d 583c f4d8 02be 13a8 a43b
000002d0: d7a3 3fbe d78e b83d 411e 1b3c 38bb 753e
000002e0: 7566 6b3d b896 43bd 2741 853a fcc3 65ba
000002f0: 6220 d1bc b1d7 7abc de36 fdbc de11 a4bd
00000300: ef16 c2bd 255e 343e d2bc e1bb b712 ffbd
00000310: 15ff fbbd 428b 933d 248a 933e f511 523d
00000320: 2853 54bd 6ab5 09bc cf40 8bbc 0cf6 b33d
00000330: 8b74 db3b 0374 eb3d 3f9e 273c 1a35 adbd
00000340: c4de 353d 4469 24bd ad02 fcbd 696c 8a3d
00000350: 9aa4 6d3d cf25 8d3d 73cc b33d bf87 d53c
00000360: 4d91 fe3c f463 42bd 6555 ca3c 18cc 91bd
00000370: d83e b8bd 64c3 31be fe5d b4bd ee90 01be
00000380: 4e43 1b3e 45c0 20bd f808 973b 0162 53bc
00000390: 0ed1 5c3d 110d 3a3e 18f3 9e3d f205 93bd
000003a0: e49a bf3c 1553 283c 5d09 853e 97a8 f3bc
000003b0: 5942 a93d 0ce9 183e 28f1 cabc 986e 793c
000003c0: ed02 4b3c 4e2d cc3c 6466 a5bd 6f54 26bd
000003d0: ebde a1bd e79b 933b 4bdb 15bd 8263 153e
000003e0: 4dd5 b33d d9cb f43c 3aa9 a7bd 0280 313c
000003f0: 42ec ae3d 50cf 84bc a210 e03d bb9c 0abe

fc_forecast.bias f4 [34]
0.16110842 0.16703016 0.19725186 0.16654877 0.19000809 0.13312139 0.21730562 0.116862394
0.18509834 0.15958743 0.21537176 0.20214589 0.19188395 0.19486165 0.20880589 0.22059377
0.19552015 0.20040561 0.17069325 0.27345246 0.19468594 0.24263614 0.2124735 0.2685318
0.2080555 0.28974617 0.1884144 0.31972897 0.1800581 0.27919933 0.2011945 0.35091728
0.16229084 0.31737402
00000000: 9bf9 243e f409 2b3e 64fc 493e c38b 2a3e
00000010: 7b91 423e f950 083e 5d85 5e3e 8d55 ef3d
00000020: 6b8a 3d3e e36a 233e 6a8a 5c3e 55ff 4e3e
00000030: 3a7d 443e d089 473e 36d1 553e 55e3 613e
00000040: 6f36 483e 2137 4d3e 36ca 2e3e f601 8c3e
00000050: c05b 473e 9c75 783e a792 593e 007d 893e
00000060: 800c 553e 9c59 943e b4ef 403e 84b3 a33e
00000070: 2761 383e 37f3 8e3e ee05 4e3e 6eab b33e
00000080: 922f 263e d97e a23e

fc_class.weight f4 [2, 128]
0.023186013 0.07570834 -0.09047685 -0.1286217 0.14700091 0.11236322 -0.2326156 0.28475362
0.07788709 0.059924353 -6.842523e-05 -0.19725484 0.4738106 -0.04253145 -0.03197744 0.381274
-0.11761187 -0.12593585 -0.20439586 0.16316162 0.2993905 -0.05819065 0.0118699875 0.04957875
-0.030748036 -0.17615435 -0.0011782454 -0.09454246 0.01065963 -0.072901346 0.010703861 0.08933531
-0.12761404 -0.10601828 -0.11862489 0.18108429 0.30315828 0.24037772 0.101919346 0.23120394
-0.12760484 -0.03617195 -0.03279291 0.3182054 -0.18190476 -0.09471556 -0.059518788 0.09058124
-0.52538615 -0.09571817 0.045865227 -0.1394416 -0.044747792 -0.10982204 0.06380119 -0.13380314
-0.053105127 -0.2860817 0.2763373 0.12384769 -0.4626381 0.17519422 0.53171736 0.17649575
-0.05403445 -0.2176964 0.32037377 -0.14378507 -0.2136318 -0.031488284 -0.3818201 0.1830395
0.103900865 0.16902703 -0.102793455 0.29049402 0.16097568 0.06557182 -0.20929761 -0.12724204
-0.41144276 -0.19210157 0.055326372 -0.43063673 0.26254195 -0.1141854 0.18431215 0.34233198
-0.12881975 -0.08815915 -0.2865302 0.027232809 -0.057276513 -0.048186626 -0.2130394 0.08326331
-0.015647423 -0.20476449 -0.13219479 0.4120316 0.08591969 0.14091212 0.07809038 -0.08697642
0.021828819 0.35140046 0.087679505 0.11547433 0.52428603 -0.3413919 -0.023676893 0.10295351
-0.21834286 -0.15319507 -0.07598785 -0.15832463 0.60686994 -0.094840825 -0.17216189 0.33119836
-0.009486181 -0.10801894 -0.19866107 0.66420394 0.30177724 0.26039156 -0.1811423 -0.21078545
-0.032581635 -0.16210273 0.06079516 0.016355477 -0.1447893 -0.10677175 0.22800404 -0.20341907
-0.03754646 -0.06723017 0.013845789 0.096603796 -0.36400592 -0.05569829 0.10051413 -0.34147674
0.09462376 0.19110096 0.18107894 -0.07148637 -0.43878937 -0.05510868 0.060683973 -0.12980573
0.0856514 0.019144597 0.04501609 0.084936924 -0.039609157 0.068590716 0.06601635 -0.16018666
0.07867794 0.14844431 0.000107938045 -0.18326443 -0.26052547 -0.31739086 -0.010755984 -0.3350012
0.045913886 0.017236613 -0.033151846 -0.41244763 0.17811257 0.09200096 0.027137848 -0.085873574
0.5067957 0.10249578 0.011384742 0.0030857597 -0.069627665 0.07705443 -0.18583807 0.22096568
0.09292732 0.27158704 -0.30174538 -0.23036112 0.5108969 -0.13941513 -0.60279036 -0.066630974
0.006963114 0.097805925 -0.3428094 0.22665995 0.08818298 -0.039587975 0.43809772 -0.19545159
-0.014685471 -0.15725763 0.19466442 -0.3147311 -0.15947571 -0.13798483 0.2488328 0.048187617
0.34212628 0.16185424 -0.049415674 0.4732866 -0.27396023 0.23478138 -0.09532113 -0.36381784
0.17851214 0.16203907 0.38100702 -0.07556653 0.026125733 0.1312304 0.22918266 -0.10601828
0.010475221 0.19651629 0.1659234 -0.48252007 0.012429415 -0.19079804 0.035903864 -0.06296991
-0.033812962 -0.36717653 -0.044751063 -0.19242537 -0.5506693 0.39363274 -0.13059151 -0.12189283
0.2460949 0.046030927 0.15338828 0.13220103 -0.57151514 0.060531113 0.16423498 -0.3405268
-0.011992436 0.08316173 0.23518084 -0.7308062 -0.2669243 -0.2078779 0.31180868 0.11593997
00000000: 98f0 bd3c f90c 9b3d ed4b b9bd 68b5 03be
00000010: 6887 163e b01e e63d c932 6ebe 3acb 913e
00000020: 4483 9f3d 3d73 753d 847f 8fb8 2cfd 49be
00000030: 4e97 f23e 7535 2ebd c7fa 02bd 5936 c33e
00000040: 7ede f0bd 54f5 00be 264d 51be d713 273e
00000050: b649 993e 5259 6ebd 567a 423c 1613 4b3d
00000060: 4ee3 fbbc ce61 34be 5b6f 9aba 7a9f c1bd
00000070: bba5 2e3c 4d4d 95bd 3f5f 2f3c 6ef5 b63d
00000080: 41ad 02be 1d20 d9bd 9bf1 f2bd 296e 393e
00000090: 9037 9b3e 9425 763e 17bb d03d bac0 6c3e
000000a0: d8aa 02be 0a29 14bd dc51 06bd d1eb a23e
000000b0: 3e45 3abe 3bfa c1bd f9c9 73bd a882 b93d
000000c0: b57f 06bf e307 c4bd 2ddd 3b3d c7c9 0ebe
000000d0: 7649 37bd 61ea e0bd 33aa 823d b103 09be
000000e0: c384 59bd 4d79 92be 157c 8d3e dca3 fd3d
000000f0: e7de ecbe 1d66 333e a11e 083f 4dbb 343e
00000100: 3a53 5dbd ceeb 5ebe 0808 a43e 653c 13be
00000110: 4bc2 5abe dcf9 00bd ed7d c3be b56e 3b3e
00000120: fac9 d43d 6c15 2d3e 6085 d2bd a2bb 943e
00000130: cfd6 243e 854a 863d 1d52 56be bd4b 02be
00000140: a0a8 d2be 46b6 44be e89d 623d 6b7c dcbe
00000150: e66b 863e 09da e9bd 53bc 3c3e 2346 af3e
00000160: 53e9 03be c98c b4bd 16b4 92be 5717 df3c
00000170: c79a 6abd 575f 45bd 0027 5abe f485 aa3d
00000180: 062f 80bc c8ad 51be 125e 07be cef5 d23e
00000190: aaf6 af3d 444b 103e d9ed 9f3d b120 b2bd
000001a0: 5ad2 b23c c3ea b33e 5091 b33d ce7d ec3d
000001b0: 9c37 063f ebca aebe 0bf6 c1bc 4ad9 d23d
000001c0: 4595 5fbe 2bdf 1cbe 859f 9bbd da1f 22be
000001d0: d45b 1b3f e83b c2bd 354b 30be d592 a93e
000001e0: ed6b 1bbc 0939 ddbd cf6d 4bbe 4509 2a3f
000001f0: 8c82 9a3e 0b52 853e 5e7d 39be 24d8 57be
00000200: 5274 05bd 42fe 25be 5804 793d ecfb 853c
00000210: a543 14be 26ab dabd e479 693e 174d 50be
00000220: 51ca 19bd f9af 89bd 73d9 623c 36d8 c53d
00000230: fc5e babe e423 64bd 5ada cd3d 0ad6 aebe
00000240: 1aca c13d f8af 433e c26c 393e 7267 92bd
00000250: 00a9 e0be a4b9 61bd c28f 783d cbeb 04be
00000260: 006a af3d 21d5 9c3c cb62 383d 69f3 ad3d
00000270: 363d 22bd 4a79 8c3d 9533 873d f907 24be
00000280: e621 a13d c901 183e cc5c e238 aca9 3bbe
00000290: 9863 85be 0e81 a2be de39 30bc 4785 abbe
000002a0: 3310 3c3d cc33 8d3c 3bca 07bd 562c d3be
000002b0: 2463 363e 006b bc3d 3150 de3c 7cde afbd
000002c0: 5dbd 013f 4fe9 d13d 1287 3a3c 753a 4a3b
000002d0: f398 8ebd b7ce 9d3d 564c 3ebe d444 623e
000002e0: ae50 be3d 750d 8b3e 5f7e 9abe c9e3 6bbe
000002f0: 24ca 023f d7c2 0ebe 7850 1abf d275 88bd
00000300: d52a e43b 794e c83d b784 afbe 8c19 683e
00000310: 4799 b43d 0027 22bd 584e e03e 7624 48be
00000320: 549b 70bc 2508 21be 1c56 473e 6f24 a1be
00000330: 9a4d 23be e54b 0dbe 07ce 7e3e 6160 453d
00000340: 2d2b af3e 1ebd 253e 1768 4abd 9f52 f23e
00000350: 8444 8cbe 886a 703e b937 c3bd 5546 babe
00000360: e3cb 363e 92ed 253e 5a13 c33e a0c2 9abd
00000370: a205 d63c 4361 063e dcae 6a3e 1d20 d9bd
00000380: 43a0 2b3c 913b 493e d3e7 293e df0c f7be
00000390: bfa4 4b3c 9060 43be ee0f 133d 5ef6 80bd
000003a0: 767f 0abd 90fe bbbe e44c 37bd 280b 45be
000003b0: aaf8 0cbf 3b8a c93e c8b9 05be f3a2 f9bd
000003c0: 4d00 7c3e ed8a 3c3d d111 1d3e b55f 073e
000003d0: d14e 12bf 79ef 773d 372d 283e 8759 aebe
000003e0: ec7b 44bc b250 aa3d 3fd3 703e 1d16 3bbf
000003f0: 4daa 88be f2dd 54be 63a5 9f3e ef71 ed3d

fc_class.bias f4 [2]
-0.026623076 -0.11036385
00000000: a318 dabc 7106 e2bd
