results/saved_models/tiny_transformer_1000.pt (torch, 297537 bytes, 30 tensors)

input_proj.weight f4 [64, 34]
0	0x3b90de46	0.0044210283
1	0xbddc0819	-0.10743732
2	0x3d3ec212	0.0465718
3	0x3d01c457	0.031681385
4	0x3e3f2541	0.18666555
5	0xbe049cdf	-0.12950467
6	0xbd9fb207	-0.07797628
7	0x3db02457	0.08600681
8	0xbd0dad43	-0.034589063
9	0x3d1e29f2	0.03861422
10	0xbd9ae423	-0.07563045
11	0xbc99e558	-0.018786117
12	0xbd297fdd	-0.041381706
13	0x3c1c19aa	0.009527603
14	0xbe08cfd6	-0.13360533
15	0x3dd0f2a6	0.102025315
16	0x3e2dafcb	0.16961591
17	0x3de5dbda	0.11223574
18	0x3e288708	0.1645776
19	0x3e2e87be	0.17043969
20	0xbd61c076	-0.055115186
21	0xbdec738c	-0.11545476
22	0xbe0a5b1c	-0.13511318
23	0x3d02de29	0.03195015
24	0x3bc271e4	0.005933987
25	0xbe177a90	-0.14792848
26	0x3e221f0e	0.15832159
27	0xbd128424	-0.03577055
28	0x3de11053	0.10989442
29	0xbe0bf670	-0.13668227
30	0x3e06fb6c	0.13181847
31	0xbe351b07	-0.17686091
32	0xbe13c235	-0.14429553
33	0xbcc4b5b3	-0.024012422
34	0x3b59947d	0.0033200078
35	0xbd1e989b	-0.038719755
36	0x3da21169	0.07913477
37	0xbdb067a0	-0.08613515
38	0x3e1739a6	0.14768085
39	0x3d695513	0.0569659
40	0xbdbe5f3c	-0.09295508
41	0xbd1c5bf1	-0.03817362
42	0xbac73575	-0.0015198427
43	0x3df69b83	0.1204138
44	0xbde817ed	-0.113326885
45	0x3e07a979	0.13248242
46	0x3cc388ac	0.023868881
47	0x3e1a1669	0.15047611
48	0x3c6a98bd	0.014318642
49	0xbd24bf04	-0.04022123
50	0x3e2becff	0.16789626
51	0xbb29f37a	-0.0025932477
52	0xbd4fb72d	-0.0507118
53	0xbd9faa74	-0.07796183
54	0xbd987f12	-0.07446112
55	0x3ba8040c	0.0051274356
56	0x3d5060ff	0.050873753
57	0x3d7bb14d	0.061448384
58	0xbdc7804e	-0.09741269
59	0x3de6a39f	0.11261677
60	0xbb947bda	-0.004531366
61	0xbd3f9179	-0.046769593
62	0xbd953198	-0.0728485
63	0xbd779f29	-0.06045452
64	0xbe1314a4	-0.14363343
65	0x3d962950	0.073320985
66	0xbdd49883	-0.10380652
67	0xbe0f491c	-0.13992733
68	0x3d881f17	0.06646555
69	0x3de81ddc	0.1133382
70	0xbcf5cc05	-0.03000451
71	0x3d94f933	0.072740935
72	0x3d8211aa	0.063510254
73	0xbd4ac60a	-0.04950527
74	0x3e2f11f0	0.17096686
75	0x3e3555ab	0.17708461
76	0x3d0e8041	0.03479028
77	0xbd2f0966	-0.042733572
78	0xbdf69df5	-0.12041847
79	0xbe118480	-0.14210701
80	0x3ca2aab6	0.019856792
81	0x3c4f6185	0.012657528
82	0xbd0459d4	-0.03231223
83	0x3d490795	0.049079496
84	0xbd281492	-0.041035242
85	0x3dd81995	0.105517544
86	0x3d01e3ee	0.03171151
87	0xbe06a19c	-0.13147587
88	0xbcde40ee	-0.02713057
89	0x3e35d2f9	0.17756261
90	0x3d7cf54c	0.06175737
91	0xbe117f6c	-0.14208764
92	0xbdcdef78	-0.10055441
93	0xbcf032e7	-0.029321147
94	0x3b997f89	0.004684393
95	0x3e1fd15e	0.15607211
96	0x3cd9e9bf	0.026600717
97	0xbd892c46	-0.066978976
98	0x3d287d9c	0.041135415
99	0xbce27f13	-0.027648484
100	0xbcfe12ed	-0.031014884
101	0xbdddacc8	-0.10823971
102	0xbdb6453e	-0.08899926
103	0x3e1e2896	0.1544517
104	0x3dd97738	0.10618442
105	0x3dd188b2	0.10231151
106	0x3c0ca53e	0.008584319
107	0xbcbf3786	-0.023341905
108	0x3e1c3360	0.15253973
109	0xbdbe7962	-0.09300496
110	0xbe040959	-0.12894191
111	0xbccb9c7e	-0.024854895
112	0xbc81bc3b	-0.015836826
113	0x3e25c03d	0.16186614
114	0xbdb2e391	-0.08734811
115	0x3dcdaa16	0.10042207
116	0x3c7bfec8	0.015380569
117	0x3c1778e1	0.009245128
118	0x3d183416	0.037159048
119	0xbd8ee30c	-0.069768995
120	0xbd97ee15	-0.074184574
121	0xbd578c58	-0.052624077
122	0x3e033e83	0.12816815
123	0xbdb922ad	-0.09039817
124	0x3dd5a9c5	0.104327716
125	0x3db1aee2	0.086759344
126	0x3e085ee3	0.13317446
127	0xbdf0c531	-0.11756361
128	0xbdab7f45	-0.08373884
129	0x3ce24747	0.027621878
130	0xbe1d4cfa	-0.15361395
131	0x3dcc8dc8	0.0998798
132	0xbdbc29fd	-0.09187696
133	0xbdfcd9b4	-0.12346211
134	0xbd22c4b3	-0.03973837
135	0xbe1c79d7	-0.15280853
136	0xbdfc3a4c	-0.12315807
137	0x3e130631	0.1435783
138	0xbd7e910c	-0.062150046
139	0xbd0c4408	-0.034244567
140	0xbd069939	-0.03286097
141	0xbd9b5250	-0.07584059
142	0x3e314fd8	0.17315614
143	0xbe15669b	-0.14589922
144	0xbc1b9de7	-0.009498096
145	0x3d35fbd1	0.044429604
146	0xbd4d2085	-0.05007984
147	0xbdc769c5	-0.09736971
148	0xbcc7aad5	-0.024373451
149	0xbb04d6dd	-0.002026967
150	0x3cad9f90	0.02119425
151	0x3be9554d	0.0071207643
152	0x3e2d7a4d	0.16941185
153	0xbdcd29c7	-0.10017734
154	0x3cea2ea8	0.0285867
155	0x3d69f785	0.05712082
156	0x3daa93b2	0.08328952
157	0x3e3bde3b	0.18346493
158	0xbdd4f11f	-0.10397553
159	0xbe0f2ebc	-0.13982671
160	0x3dd1f3cc	0.10251579
161	0xbc259099	-0.010105276
162	0xbc5d3659	-0.013501727
163	0x3d066058	0.032806724
164	0x3d550cec	0.052014276
165	0xbcdada26	-0.02671535
166	0x3e39e179	0.18152417
167	0xbcd3565b	-0.025798013
168	0xbd3153d0	-0.04329282
169	0xbe04377f	-0.12911795
170	0xbdc10dff	-0.09426498
171	0xbe1b9b85	-0.15196045
172	0xbe358f4d	-0.17730446
173	0x3d21c095	0.0394903
174	0xbde235b9	-0.11045403
175	0x3db10c30	0.08644903
176	0x3ddfb81d	0.10923789
177	0x3bd18269	0.00639372
178	0x3d688c0b	0.05677418
179	0x3b546197	0.00324068
180	0x3cde7524	0.027155466
181	0xbe1fb0cf	-0.15594791
182	0xbdd93b0a	-0.10606964
183	0xbdddecd5	-0.10836188
184	0xbb84422d	-0.004036209
185	0x3dc7297a	0.09724708
186	0xbce316c5	-0.027720818
187	0x3d756d11	0.059918467
188	0xbd345f3d	-0.04403614
189	0xbda0e4b3	-0.07856121
190	0x3dba9a00	0.091114044
191	0x3cd22047	0.025650157
192	0xbce8deff	-0.028426645
193	0x3d873141	0.06601191
194	0xbe234497	-0.15944134
195	0x3cfa2803	0.030536657
196	0x3e314a3a	0.17313471
197	0x3d0120fd	0.0315256
198	0x3dd566a9	0.104199715
199	0xbe14d6a2	-0.14535001
200	0xbcd9408b	-0.026520034
201	0x3d5962f3	0.05307288
202	0xbc47fe53	-0.012206632
203	0x3ccb2de4	0.024802156
204	0xbdace6c5	-0.08442453
205	0xbe01d575	-0.12679084
206	0x3ba8d6b2	0.005152547
207	0xbe3ca2eb	-0.18421523
208	0xbe0477ac	-0.12936276
209	0xbdc774ab	-0.097390495
210	0x3e2445a9	0.16042198
211	0xbdb849f1	-0.08998478
212	0xbd373823	-0.04473127
213	0xbe1e351d	-0.15449949
214	0x3e1c3958	0.1525625
215	0x3db34fc6	0.0875545
216	0xbda9f88a	-0.08299358
217	0xbcd3510f	-0.025795488
218	0xbdbca8c0	-0.09211874
219	0x3cc878c6	0.024471652
220	0xbd2a6146	-0.041596673
221	0xbcddb9a7	-0.027066065
222	0xbdf8c29d	-0.121464945
223	0x3e25d28e	0.16193601
224	0x3d6475f7	0.055776563
225	0x3d1af3b6	0.037830077
226	0x3e29c778	0.16579998
227	0x3dd928a3	0.10603454
228	0x3d43f73a	0.047843195
229	0xbe226577	-0.15859018
230	0xbdbe74bd	-0.0929961
231	0x3e292f1b	0.16521876
232	0xbcc72248	-0.024308339
233	0x3d26faed	0.040766645
234	0xbdc2b040	-0.09506273
235	0x3e188fab	0.14898555
236	0xbd091f30	-0.03347701
237	0x3de77176	0.11300938
238	0x3d2ba5ad	0.041906048
239	0x3e15d9f1	0.1463392
240	0x3de0f204	0.10983661
241	0x3deee04f	0.11663877
242	0x3d943c28	0.072380364
243	0xbd023389	-0.03178743
244	0xbe10092d	-0.14066
245	0xbdac5015	-0.08413712
246	0xbe06882a	-0.1313788
247	0xbd297eb2	-0.04138059
248	0xbe049063	-0.12945704
249	0xbc58aa4e	-0.013224198
250	0xbdc16805	-0.09443668
251	0x3dab14a2	0.08353545
252	0xbdd55d6d	-0.1041821
253	0x3ddf6aa1	0.1090901
254	0xbc068ec6	-0.008212751
255	0x3e37c7d5	0.17947324

input_proj.bias f4 [64]
0	0x3db461c1	0.088077076
1	0x3d84d71e	0.06486343
2	0xbe09b349	-0.13447298
3	0x3e23b399	0.1598648
4	0xbcedb6cd	-0.02901783
5	0x3dff3317	0.124609165
6	0xbd905868	-0.07048112
7	0xbe32a6aa	-0.1744639
8	0xbd9a7a57	-0.07542866
9	0xbdbd7f2f	-0.09252774
10	0x3d9d5efa	0.07684131
11	0x3da4b0db	0.08041545
12	0x3c13628d	0.008995664
13	0x3d71f6a9	0.059073124
14	0x3d847ad0	0.06468737
15	0xbe0199c2	-0.1265631
16	0xbdb8d019	-0.090240665
17	0x3dde35b6	0.10850088
18	0xbded7321	-0.11594225
19	0xbd5bb1f9	-0.053636525
20	0xbe1baab4	-0.15201837
21	0x3e3f0cca	0.18657222
22	0xbe23362d	-0.15938635
23	0x3d9e0c52	0.07717194
24	0x3dc41d4a	0.09575899
25	0x3d2c6569	0.0420889
26	0xbda27141	-0.07931758
27	0x3e140fa7	0.14459096
28	0xbe2a97da	-0.1665949
29	0x3e043b0b	0.12913148
30	0x3e2ca8de	0.16861293
31	0xbdc4a5a7	-0.09601908
32	0x3e5df1bb	0.21674244
33	0x3dc7ae6e	0.09750067
34	0xbd42fd52	-0.047604866
35	0xbc0894d7	-0.008336267
36	0x3e021a47	0.12705337
37	0x3d7ada6c	0.06124346
38	0x3c9943b4	0.018709041
39	0x3d5b3d4b	0.05352525
40	0xbb84528c	-0.0040381607
41	0xbe1c04cf	-0.1523621
42	0x3df29bab	0.118460976
43	0xbdc5ce44	-0.09658483
44	0xbd8d1705	-0.06889156
45	0xbe056927	-0.13028394
46	0x3d97f474	0.074196726
47	0x3d5c66dd	0.053809036
48	0x3dd08d8b	0.10183247
49	0xbd3c99b7	-0.04604503
50	0xbd99b72a	-0.07505639
51	0x3dc057bc	0.09391734
52	0xbe371951	-0.17880751
53	0xbc9f4d34	-0.019445993
54	0x3d69fc1c	0.057125196
55	0x3dc11f30	0.09429777
56	0xbe098b6a	-0.13432088
57	0xbda07cab	-0.078362785
58	0xbd266f43	-0.04063345
59	0x3e250e5e	0.16118762
60	0x3dbd12ea	0.09232123
61	0x3db622bd	0.088933446
62	0x3dfffe74	0.12499705
63	0xbe1e9d4c	-0.15489691

transformer.layers.0.self_attn.in_proj_weight f4 [192, 64]
0	0xbe8bbe56	-0.27293652
1	0x3e2cc896	0.16873392
2	0x3e144530	0.14479518
3	0x3db48de4	0.08816126
4	0x3e1e9c88	0.154894
5	0xbdfe6229	-0.12421066
6	0xbe6e0111	-0.23242594
7	0x3bd1a78a	0.006398146
8	0x3d2ff783	0.042960655
9	0xbcc8c909	-0.024509924
10	0xbce82f59	-0.02834289
11	0xbe304c29	-0.17216553
12	0xbd640881	-0.055672172
13	0x3e206169	0.15662159
14	0xbd483757	-0.0488809
15	0x3dcbef7d	0.09957788
16	0x3bd756ba	0.006571618
17	0x3c9d64f3	0.019213175
18	0x3e8313b0	0.25600958
19	0x3e327c6d	0.17430277
20	0x3e381283	0.17975812
21	0x3e2c01b4	0.16797525
22	0x3e098554	0.13429767
23	0x3d313624	0.043264523
24	0xbe5c2e73	-0.21502094
25	0x3d97bf56	0.07409541
26	0xbe310b28	-0.17289412
27	0xbe44a839	-0.19204797
28	0x3e6f6f02	0.2338219
29	0x3d058379	0.032596085
30	0xbcbf10ea	-0.023323495
31	0xbe19fbf4	-0.15037519
32	0x3e1e9ce9	0.15489544
33	0xbd7f48b0	-0.06232518
34	0x3d849670	0.06474006
35	0x3d3f5233	0.04670925
36	0x3da6343f	0.08115434
37	0x3ca7bd3f	0.020475982
38	0xbe668184	-0.22510344
39	0x3e6c51f1	0.23078133
40	0xbdfbdca8	-0.12297946
41	0xbd8ee57f	-0.06977367
42	0xbe0e9895	-0.13925393
43	0xbd725227	-0.059160378
44	0xbceff142	-0.029289845
45	0x3e4a97a0	0.19784403
46	0x3d89e83d	0.06733749
47	0x3d77888b	0.060432952
48	0x3d9fc175	0.07800571
49	0xbd158562	-0.036504157
50	0xbddfc338	-0.10925907
51	0xbe3ea46f	-0.18617414
52	0xbba8a872	-0.0051470334
53	0x3d49ade7	0.04923811
54	0x3ce23a56	0.027615707
55	0x3c892c2a	0.016744692
56	0x3d7d14bc	0.061787352
57	0x3c9ea368	0.019365028
58	0x3e36058e	0.17775556
59	0xba62fca3	-0.00086588616
60	0x3e32bce8	0.17454875
61	0xba3717ac	-0.00069844234
62	0x3d7dee84	0.061995044
63	0x3d14e35b	0.036349636
64	0xbe8ce614	-0.27519286
65	0x3e0a5ad7	0.13511215
66	0x3e7239d4	0.23654872
67	0x3e19628b	0.14978997
68	0xbe33ac65	-0.17546232
69	0x3d86419b	0.06555482
70	0xbe63accf	-0.2223389
71	0xbd68e8f1	-0.056862775
72	0x3d9dd3a8	0.07706386
73	0x3d8d9cb9	0.06914658
74	0x3d53d61e	0.05171787
75	0x3d829da2	0.06377722
76	0xbd05231e	-0.032504193
77	0xbdd29907	-0.10283094
78	0xbe5b9ccd	-0.21446534
79	0xbe2ce5c1	-0.16884519
80	0x3da230f4	0.07919493
81	0x3d28f881	0.041252617
82	0x3d839bcb	0.064261995
83	0x3e069cce	0.13145754
84	0xbca6f5d5	-0.020380894
85	0xbe296bec	-0.16545075
86	0x3e00e303	0.12586598
87	0x3e22d1c8	0.15900338
88	0xbd2d313f	-0.042283293
89	0xbc7108a5	-0.014711534
90	0xbd0da2cd	-0.034579087
91	0xbe158af2	-0.14603785
92	0x3d561ff4	0.052276567
93	0xbe3cf95e	-0.18454501
94	0xbd5f671c	-0.054541692
95	0x3dea14ea	0.1142977
96	0xbde0c490	-0.10974991
97	0x3df0af35	0.11752168
98	0x3d626dd5	0.055280525
99	0x3a8d8a48	0.0010798657
100	0x3b5bd1f6	0.0033541895
101	0xbca66bc6	-0.020315062
102	0xbdf404a3	-0.11914947
103	0x3e39d218	0.1814655
104	0x3cdacab1	0.026707979
105	0x3d8dfbaa	0.06932767
106	0x3d064b09	0.032786403
107	0x3da1ae6b	0.07894596
108	0x3cf36eef	0.029715983
109	0x3df61b5f	0.12016939
110	0xbccdc3bd	-0.02511775
111	0xbc25964f	-0.010106637
112	0x3d2fbf8e	0.04290729
113	0xbe33e8cf	-0.17569278
114	0xbe42f0ac	-0.19037122
115	0xbe14d66b	-0.14534919
116	0xbe056325	-0.13026102
117	0x3e59cc40	0.21269321
118	0xbdb9b91f	-0.09068512
119	0xbccc39f6	-0.024929982
120	0xbe4405f7	-0.191429
121	0xbdca96e7	-0.098920636
122	0xbd9a5dc8	-0.075374186
123	0x3d109a31	0.0353033
124	0x3e28df83	0.16491513
125	0x3db43272	0.08798684
126	0x3c1a86e5	0.009431575
127	0x3e13f81b	0.14450113
128	0xbe5d0b46	-0.21586332
129	0x3e366800	0.1781311
130	0x3dc74884	0.09730628
131	0x3d590db6	0.05299159
132	0x3e375b59	0.1790594
133	0x3d9731b5	0.07382528
134	0xbd182d56	-0.03715261
135	0x3e716e7a	0.235773
136	0x3e1ec139	0.15503396
137	0x3b874644	0.0041282494
138	0x3cadc588	0.021212354
139	0xbcd897a8	-0.026439503
140	0x3d51f530	0.05125922
141	0xbc3c50b8	-0.011493854
142	0xbe97c3d9	-0.29641607
143	0x3d64727c	0.055773243
144	0x3e570419	0.20997657
145	0x3d4a4f1a	0.049391843
146	0x3e42ae21	0.19011737
147	0x3e5f25b3	0.21791725
148	0x3d460de0	0.048353076
149	0x3dfb7df2	0.122798815
150	0x3d6ef77e	0.058341496
151	0xbe874d51	-0.26426175
152	0xbe7b214e	-0.24524423
153	0x3d72ef0e	0.05931001
154	0xbdb6bd89	-0.0892287
155	0xbddbf583	-0.10740187
156	0x3e70a25d	0.23499437
157	0x3dc26687	0.09492212
158	0xbdf5aa7d	-0.11995409
159	0xbd842f03	-0.06454279
160	0x3d9d142b	0.07669862
161	0xbe6fb81c	-0.23410076
162	0xbdb38585	-0.08765701
163	0x3e2f83c5	0.1714011
164	0xbe43b014	-0.19110137
165	0xbe2aa628	-0.16664946
166	0x3a6cfe64	0.00090405927
167	0x3d618c60	0.055065513
168	0xbd437f1c	-0.047728643
169	0xbdcfb80c	-0.10142526
170	0xbd073fe3	-0.03301991
171	0xbe5864e2	-0.21132234
172	0xbdc2bee5	-0.095090665
173	0x3e747aa1	0.23874904
174	0xbdbb5f83	-0.09149077
175	0x3e026bb1	0.12736394
176	0x3e0b75e4	0.1361919
177	0xbc1f6041	-0.009727539
178	0xbe4360b7	-0.19079863
179	0xbe2f819c	-0.17139286
180	0xbc0c8626	-0.008576905
181	0xbcf5ab09	-0.029988782
182	0xbe0b3c13	-0.13597135
183	0xbe6d3573	-0.2316492
184	0xbde30aed	-0.11086068
185	0x3e6de152	0.23230484
186	0x3dc93d26	0.09826116
187	0xbe2399a7	-0.15976582
188	0x3e87b10a	0.26502258
189	0xbe89c0df	-0.2690496
190	0xbd8503f3	-0.06494894
191	0x3da4ea76	0.080525324
192	0xbe1d16b9	-0.153407
193	0x3e898f18	0.26866984
194	0x3e7628f5	0.24039061
195	0xbacb2f99	-0.0015501856
196	0x3d1264c7	0.03574064
197	0xbca5f78d	-0.020259643
198	0xbc2d8e0c	-0.010592949
199	0x3d93b7af	0.07212769
200	0xbc24cc15	-0.010058423
201	0x3dc45b17	0.095876865
202	0x3bb71477	0.0055871564
203	0xbe2bb36f	-0.16767667
204	0x3d765586	0.060140155
205	0xbd456d85	-0.04820015
206	0xbdd41258	-0.10355061
207	0xbc774ed8	-0.015094481
208	0x3e1f85d2	0.15578392
209	0xbce08f20	-0.027411997
210	0x3e7e3f1e	0.24828765
211	0x3e31b704	0.17354971
212	0x3de074cc	0.10959777
213	0xbd8b72d1	-0.06809009
214	0x3e17607e	0.14782903
215	0x3d9a7431	0.07541693
216	0xbe7dfd75	-0.24803717
217	0xbd665f34	-0.056243137
218	0x3da3dc66	0.08001022
219	0xbe3baa0a	-0.18326584
220	0x3d89c111	0.067262776
221	0xbc3a38ac	-0.011366051
222	0xbe0f097b	-0.1396846
223	0xbd5c3d85	-0.053769607
224	0x3e0bbefd	0.13647075
225	0xbdb0db18	-0.08635539
226	0xbe1e0b4f	-0.15434001
227	0x3df72fcb	0.12069663
228	0xbde495f6	-0.11161415
229	0xbdcfe35f	-0.101507895
230	0xbe18aaf5	-0.14908965
231	0x3e85f8c2	0.2616635
232	0xbdb9dbc5	-0.09075121
233	0x3e2be4e8	0.1678654
234	0xbe4c4ac1	-0.19950391
235	0xbd5c75f7	-0.053823438
236	0xbe01084e	-0.12600824
237	0x3eadd7ea	0.33953792
238	0xbcb46851	-0.022022398
239	0xbe0c0d61	-0.13676979
240	0x3e1df142	0.15424064
241	0xbe047df0	-0.12938666
242	0xbe8a476a	-0.2700761
243	0xbe6fef96	-0.23431239
244	0xbe26773f	-0.16256426
245	0xbd826c17	-0.06368273
246	0xbdc206ee	-0.09473978
247	0xbd285863	-0.041099917
248	0xbde07b5b	-0.10961028
249	0x3e62abb3	0.2213581
250	0x3de83124	0.11337498
251	0xbe0b4234	-0.13599473
252	0x3e5aaa32	0.21353987
253	0xbda3b05f	-0.079926245
254	0xbd31a942	-0.043374307
255	0x3dba74de	0.09104322

transformer.layers.0.self_attn.in_proj_bias f4 [192]
0	0xbd507823	-0.05089582
1	0xbae0b3d3	-0.0017143436
2	0xbdcdc549	-0.10047395
3	0xbd7496cf	-0.059714135
4	0xbd778bed	-0.060436178
5	0x3d719c6d	0.05898707
6	0xbd8c602b	-0.0685428
7	0xbd584aa3	-0.052805554
8	0xbe139161	-0.14410926
9	0x3c47ec92	0.012202399
10	0xbd6a08c8	-0.05713728
11	0xbc184891	-0.009294645
12	0xbdaeccc0	-0.08535147
13	0x3d59a75a	0.053138115
14	0xbd99c118	-0.07507533
15	0x3a637b65	0.000867775
16	0x3dd3b841	0.10337878
17	0xbe444dc5	-0.19170292
18	0xbe00f77b	-0.12594406
19	0xbe2ce28b	-0.16883294
20	0xbde041b8	-0.10950035
21	0xbe5870d2	-0.21136788
22	0xbe1530cf	-0.145694
23	0x3e2cb26e	0.1686494
24	0x3ddf5121	0.10904146
25	0xbe2caca1	-0.16862728
26	0x3c8cfb64	0.017209716
27	0x3e2656f6	0.1624411
28	0xbe1abf20	-0.15111971
29	0x3de885a3	0.11353614
30	0x3e415568	0.18880236
31	0x3e2a6d34	0.1664322
32	0xbdeb4660	-0.11488032
33	0x3dbd0565	0.092295446
34	0x3db82ef8	0.089933336
35	0xbd91a62c	-0.07111773
36	0x3dcf7fa7	0.101317696
37	0xbd7f9847	-0.062401082
38	0xbdfea764	-0.12434271
39	0xbdea5570	-0.11442077
40	0xbdb7d8d2	-0.08976902
41	0xbdd4953b	-0.10380026
42	0xbd193bd6	-0.03741058
43	0xbd5cc678	-0.053900212
44	0x3dbb1903	0.0913563
45	0xbe0291b0	-0.12750888
46	0xbd43593c	-0.047692522
47	0x3d2e991a	0.042626478
48	0x3e524bd0	0.20536733
49	0x3e571e94	0.21007758
50	0xbe572087	-0.21008502
51	0x3ea0b171	0.31385377
52	0xbe6931f8	-0.22772968
53	0xbe1a8f22	-0.15093663
54	0xbe6f8e91	-0.23394229
55	0x3e97d5f3	0.29655418
56	0xbe91ff53	-0.2851511
57	0x3e3dd490	0.18538117
58	0xbe4ed5fe	-0.20198819
59	0x3e113dbb	0.14183705
60	0x3dd4370d	0.103620626
61	0xbe8caf7b	-0.2747763
62	0xbe355074	-0.17706472
63	0x3e6d4f0f	0.2317469
64	0x3acffc81	0.0015868099
65	0xba02a476	-0.0004983613
66	0x3b438d7f	0.0029838977
67	0x3b3dfea0	0.002899088
68	0x3adbdc6d	0.0016774066
69	0xbb773350	-0.0037719794
70	0x3a31b43c	0.0006778871
71	0x3a2624f2	0.0006337903
72	0x3b72ed23	0.0037067614
73	0xba48f46a	-0.0007665815
74	0x3b0950ed	0.0020952777
75	0x3a9a093a	0.0011752017
76	0x3a9e2127	0.0012064324
77	0xbb0ab10f	-0.0021162664
78	0x3b21d1e7	0.0024691762
79	0xba9cc028	-0.0011959122
80	0xb818f62d	-3.6468893e-05
81	0xb92dc76d	-0.00016572858
82	0x3af07fc8	0.0018348629
83	0xba74bcc0	-0.0009335987
84	0x3ab88761	0.0014078432
85	0x3a727409	0.0009248858
86	0xba6bca10	-0.0008994648
87	0x3aa8f608	0.0012890706
88	0xbb162241	-0.00229086
89	0x3b1889b1	0.002327543
90	0x38b95c28	8.838653e-05
91	0x39e4d335	0.0004364491
92	0xb806a582	-3.210223e-05
93	0x3849bed0	4.8099842e-05
94	0xb9b3ae20	-0.00034271274
95	0x3a962aa0	0.0011456795
96	0x3aea7536	0.0017887715
97	0xb9c1c676	-0.00036959694
98	0x3a92b448	0.0011192644
99	0x3a7152c2	0.0009205752
100	0xba9b0439	-0.001182682
101	0x3a8e94a2	0.0010878036
102	0xba659917	-0.0008758469
103	0x3ab347fb	0.0013678068
104	0xba34b641	-0.0006893613
105	0xbb3461f2	-0.00275242
106	0x399ee97a	0.00030310062
107	0x378c6183	1.6734708e-05
108	0x39f6ca81	0.00047071654
109	0x3b545ba9	0.0032403267
110	0x3a96758a	0.0011479121
111	0x3a785491	0.00094730506
112	0xbbbd981d	-0.0057859556
113	0xbbeb6e33	-0.0071847676
114	0x3ba1c1ce	0.0049364334
115	0xbc0bed65	-0.008540486
116	0x3c191e69	0.009345629
117	0x3bda5763	0.0066632493
118	0x3be1ecac	0.0068946686
119	0xbc103d37	-0.008803657
120	0x3bf91568	0.007601429
121	0xbbcbe5c5	-0.006222459
122	0x3bedd79f	0.00725837
123	0xbbb3d573	-0.0054880916
124	0xbbc53764	-0.006018566
125	0x3c153e51	0.009109096
126	0x3bacd77d	0.0052747116
127	0xbb8d05c3	-0.0043036654
128	0xbb5d423d	-0.0033761405
129	0xbc138911	-0.009004847
130	0x3b062e0b	0.002047422
131	0x3ae99a3b	0.0017822454
132	0xbbfb0ba0	-0.007661298
133	0x3baf10d8	0.005342584
134	0xb9d9152f	-0.00041405248
135	0xbba0ddb4	-0.0049092416
136	0xbc64f7df	-0.013975113
137	0xbc25b8b6	-0.010114839
138	0x3cae6bd4	0.02129165
139	0x3cea0df3	0.028571105
140	0x3c3073d0	0.010769799
141	0x3bababe6	0.0052389977
142	0xbc9a1910	-0.018810779
143	0xbc05e4d5	-0.008172234
144	0x3bc588f0	0.006028287
145	0xbcb7bd41	-0.02242911
146	0x3c48eec9	0.012263962
147	0x3c835100	0.016029835
148	0xbc560e60	-0.013064951
149	0xbc60f52b	-0.013730328
150	0x3c0b7cf3	0.008513677
151	0xbc4751fe	-0.012165545
152	0xbbe1a314	-0.0068858955
153	0xbc537df1	-0.012908445
154	0xbb1a7f6e	-0.002357449
155	0xbc8482da	-0.016175676
156	0x3b820523	0.0039678975
157	0x3c3df97d	0.011595127
158	0x3bf621a0	0.0075113326
159	0x3829a4e5	4.044631e-05
160	0xbbfa5b3c	-0.0076402705
161	0x3bc704a4	0.0060735513
162	0xbcc86465	-0.024461934
163	0x3afd6dfd	0.0019335147
164	0x3bd2901a	0.0064258697
165	0x3bf46553	0.007458368
166	0xbb9ee690	-0.0048492625
167	0x3cad4a48	0.021153584
168	0x3c889027	0.0166703
169	0xbca10fc8	-0.019660845
170	0xbc756c09	-0.014979371
171	0x3bc21a0f	0.0059235166
172	0xbb2b6971	-0.0026155377
173	0x3bad6005	0.0052909874
174	0x3c9ebfa7	0.019378496
175	0xbca7048a	-0.020387907
176	0xbbc1ece6	-0.005918133
177	0x3b28ca45	0.0025755328
178	0x3c227486	0.009915477
179	0xbbfaa3c3	-0.0076489164
180	0x3c1100af	0.008850261
181	0x3be13478	0.00687271
182	0xbbd0b154	-0.0063687954
183	0xbae691ca	-0.0017591056
184	0xb9158769	-0.00014260192
185	0x3c1c683f	0.009546339
186	0x3c046b5f	0.00808224
187	0x3c126271	0.008934603
188	0xbc29f9e7	-0.010374523
189	0x3bb2e0b6	0.0054589165
190	0xba9573c0	-0.0011402294
191	0xbc62ec25	-0.013850247

transformer.layers.0.self_attn.out_proj.weight f4 [64, 64]
0	0x3bcf3b67	0.00632422
1	0x3ca6c482	0.020357374
2	0x3cf537c5	0.02993382
3	0xbda5a191	-0.08087457
4	0xbdf61176	-0.12015049
5	0x3d82fbef	0.06395709
6	0x3d2ed2b4	0.04268141
7	0x3d8cd40f	0.068763845
8	0x3d8a7b66	0.06761818
9	0xbd3c5d69	-0.04598752
10	0x3d95f4b2	0.073220626
11	0xbd1c68f6	-0.038186036
12	0x3d7d8667	0.061895754
13	0xbd6d66a8	-0.05795923
14	0x3cbb23d8	0.02284424
15	0xbd40cfa5	-0.047073025
16	0xbd816e43	-0.06319859
17	0x3e07d155	0.13263448
18	0x3ccd4612	0.025057826
19	0x3dea092c	0.11427531
20	0x3bb9c715	0.0056694844
21	0x3d9f844b	0.07788905
22	0x3d2c41e8	0.04205504
23	0xbce7991d	-0.028271252
24	0x3bc24214	0.0059282873
25	0xbd5db1d8	-0.054124683
26	0xbd312bac	-0.04325454
27	0x3d20c267	0.039247897
28	0xbd9f39b8	-0.07774681
29	0x3c2e6460	0.010644048
30	0x3c06291d	0.008188513
31	0xbcc00e98	-0.023444459
32	0xbba0b467	-0.004904318
33	0x3df9c972	0.12196626
34	0x3daf07c9	0.08546407
35	0x3c23fb45	0.010008638
36	0xbd004150	-0.031312287
37	0xbcd11bad	-0.025525892
38	0x3e2f2e91	0.17107607
39	0xbdd60834	-0.10450783
40	0xbe224b87	-0.15849124
41	0x3d2f3d18	0.042782873
42	0x3d43c69d	0.047796834
43	0xbd86e064	-0.06585768
44	0x3df7c814	0.12098709
45	0xbd5a7ffd	-0.053344715
46	0x3d6bedc0	0.057599783
47	0x3da93048	0.08261162
48	0x3bd142a1	0.0063861166
49	0xbc7ba16e	-0.015358312
50	0x3dc828f1	0.09773434
51	0xbd641c89	-0.055691276
52	0xbaaddb2e	-0.0013264173
53	0x3d7d73af	0.061877903
54	0x3dfd4144	0.12365964
55	0xbd9be707	-0.07612424
56	0x3d842728	0.06452781
57	0xbdc786ac	-0.097424835
58	0x3d276178	0.040864438
59	0xbd76db17	-0.060267534
60	0xbd064e1c	-0.032789335
61	0x3de45ca3	0.111504816
62	0xb9b00e54	-0.0003358001
63	0xbc7b654e	-0.015343977
64	0x3dae3132	0.08505477
65	0x3cf0e8e9	0.029407935
66	0xbde58979	-0.112078615
67	0xbdc3822a	-0.09546311
68	0x3dc3612a	0.09540017
69	0xbe000851	-0.12503172
70	0x3e021fff	0.12707518
71	0xbc05bf74	-0.008163322
72	0x3d3ec45a	0.046573974
73	0x3dc76355	0.09735743
74	0xbdd1e09a	-0.102479175
75	0xbd87ac19	-0.06624622
76	0xbd1da463	-0.03848685
77	0x3c3aa166	0.011391019
78	0xbda76f43	-0.08175518
79	0x3d77c456	0.060489975
80	0xbcaae47b	-0.020860901
81	0x3ce8287e	0.02833962
82	0x3b5e6f94	0.0033941017
83	0xbd299680	-0.041403294
84	0xbda696d6	-0.081342384
85	0xbdb56253	-0.088566445
86	0x3dcf5136	0.10122912
87	0xbd583c2a	-0.052791752
88	0x3bcf3f1a	0.006324661
89	0xbbd0eb5b	-0.006375713
90	0xbddd2aab	-0.10799154
91	0x3cd183a9	0.025575476
92	0xbc090603	-0.00836325
93	0xbd90c1d1	-0.070682175
94	0xbde15087	-0.110016875
95	0x3c400684	0.011720303
96	0xbdc32799	-0.09529037
97	0xbde23eb2	-0.110471144
98	0xbd972d1c	-0.07381651
99	0x3d73df73	0.05953927
100	0xbd56832c	-0.05237119
101	0xbd2d2c1e	-0.0422784
102	0xbc0b2f44	-0.008495156
103	0x3c2a877a	0.010408277
104	0xbd3451de	-0.044023387
105	0xbdcf42ca	-0.10120161
106	0xbcb1ab07	-0.021687998
107	0x3cb442c2	0.022004489
108	0xbd0e2d6a	-0.03471128
109	0xbe02d102	-0.12775043
110	0x3c01ef2f	0.007930561
111	0x3c8ff9a0	0.017575085
112	0xbd56100b	-0.052261394
113	0xbe0a4b06	-0.13505182
114	0x3ca402bf	0.02002084
115	0x3dfa76f2	0.12229718
116	0xbe13a13b	-0.14416973
117	0x3cce134b	0.025155684
118	0xbd32779d	-0.043571103
119	0x3c2d15a3	0.010564241
120	0xbd89285e	-0.066971526
121	0xbddc90e3	-0.107698224
122	0xbd953d0e	-0.07287036
123	0x3d9be5ee	0.07612215
124	0xbe1b7106	-0.15179834
125	0xbda5e4ae	-0.08100258
126	0x3d45aac0	0.048258543
127	0x3db63034	0.08895913
128	0xbbb043ac	-0.005379161
129	0xbd9e5aae	-0.077321395
130	0xbdcf1dac	-0.10113081
131	0x3c968cb6	0.018377643
132	0xbd895275	-0.067051806
133	0x3c08b71b	0.008344437
134	0xbd0a2c0b	-0.03373341
135	0x3b004677	0.001957325
136	0xbd81fa72	-0.06346597
137	0xbd16e57a	-0.03683994
138	0x3df462e5	0.11932925
139	0x3dc9f42a	0.09861024
140	0x3cd9089f	0.026493369
141	0x3deac966	0.11464195
142	0x3dd10701	0.10206414
143	0x3d051e88	0.03249982
144	0x3d965643	0.07340672
145	0x3d1e3fdb	0.038635116
146	0x3ddcc36f	0.107794635
147	0xbd42f5ff	-0.04759788
148	0xbc410b5f	-0.011782496
149	0x3ba7b71c	0.005118264
150	0x3c35b2f2	0.011090027
151	0x3dca53ec	0.09879288
152	0xbc60f4c5	-0.013730233
153	0x3d79b9df	0.060968276
154	0xbddeda11	-0.108814366
155	0x3d2baa45	0.04191043
156	0x3d8396fb	0.064252816
157	0x3b7800ab	0.0037842195
158	0x3dc6192e	0.096727714
159	0x3da29a2b	0.079395615
160	0xbc98e50c	-0.018663906
161	0x3dc56650	0.09638655
162	0xbd84b30a	-0.064794615
163	0xbda82100	-0.08209419
164	0x3d685433	0.056720924
165	0xbdb3b1f8	-0.08774179
166	0xbdacf0c1	-0.08444358
167	0xbdfa0647	-0.122082286
168	0x3d9dd078	0.07705778
169	0x380e4a0b	3.3924396e-05
170	0xbcff762c	-0.031184278
171	0xbcc24397	-0.02371387
172	0x3b2858e2	0.0025687744
173	0x3cc3c711	0.023898633
174	0xbcc668be	-0.024219867
175	0x3b567a95	0.0032726873
176	0xbb781eb6	-0.0037860102
177	0xbd6d8cc2	-0.057995565
178	0xbd7b41d5	-0.06134208
179	0x3d8c8543	0.06861355
180	0xbd9c282c	-0.0762485
181	0x3daa4a16	0.08314912
182	0x3d0c148e	0.03419929
183	0xbcbd4e45	-0.02310861
184	0x3bbccd28	0.005761761
185	0xbd1826b1	-0.037146274
186	0xbcc4d160	-0.024025619
187	0xbda10c1d	-0.078636386
188	0xbddc847f	-0.10767459
189	0xbaaf12d9	-0.0013357057
190	0x3b881349	0.0041526896
191	0xbd9d0b68	-0.07668191
192	0x3d8e1d4f	0.06939184
193	0x3c0e2664	0.008676145
194	0x3d3c0d5e	0.045911185
195	0x3d3438b3	0.043999385
196	0xbdeafeb6	-0.114743635
197	0x3d835d73	0.064143084
198	0x3d034490	0.03204781
199	0x3d016c8c	0.03159766
200	0xbc213d56	-0.009841284
201	0xbd762b59	-0.060099933
202	0xbd31f624	-0.04344763
203	0xbdf5d2af	-0.12003075
204	0xbb15c39d	-0.002285219
205	0x3d5e01e6	0.05420103
206	0x3dd69ddb	0.10479327
207	0xbca4d6bf	-0.02012193
208	0xbd5cd709	-0.05391601
209	0xba37d2e4	-0.0007012321
210	0x3c842545	0.016131053
211	0xbcdf8990	-0.027287275
212	0x3e1b1527	0.15144788
213	0x3cd53190	0.02602461
214	0xbe0941b3	-0.13403969
215	0xbcefc373	-0.029268002
216	0xbc592a51	-0.013254718
217	0xbcb785d5	-0.022402683
218	0xbc9ad95c	-0.018902473
219	0xbd223b4c	-0.03960733
220	0x3d56d5f5	0.05245014
221	0x3d9ac731	0.07557524
222	0xbdce67d6	-0.10078399
223	0x3c13af7d	0.009014008
224	0x3c864670	0.01639101
225	0x3c0202a9	0.007935205
226	0x3d8a85a7	0.067637734
227	0x3d901639	0.07035489
228	0x3d86e1a3	0.065860055
229	0xbd8864a2	-0.06659819
230	0x3e08c7d1	0.13357474
231	0x3e1be011	0.15222193
232	0x3e04d85e	0.12973163
233	0xbda82e13	-0.08211913
234	0x3b959c83	0.004565777
235	0xbc866ea9	-0.016410189
236	0xbe0d4ba6	-0.13798389
237	0x3d833dc6	0.06408267
238	0x3d0a4dd1	0.033765618
239	0x3d811bd5	0.06304137
240	0x3a41db11	0.0007395009
241	0x3e07e91c	0.13272518
242	0x3dfa329e	0.12216686
243	0x3d889c91	0.06670488
244	0xbdac7af6	-0.084218904
245	0x3c4b3dc8	0.0124048665
246	0xbcbafe07	-0.022826208
247	0x3cdac09c	0.026703171
248	0x3da2ea51	0.079548486
249	0x3d540231	0.051759902
250	0x3d745851	0.059654538
251	0x3dd57ed3	0.104245804
252	0x3cd56935	0.026051143
253	0xbd0baedd	-0.03410231
254	0x3b9cb8c2	0.004782767
255	0x3d1b0c39	0.037853453

transformer.layers.0.self_attn.out_proj.bias f4 [64]
0	0x3d1e94ba	0.038716055
1	0xbcd1b269	-0.025597768
2	0xbcd59372	-0.026071284
3	0x3cefaf7d	0.029258484
4	0x3c55f1e3	0.013058159
5	0x3c3f3957	0.011671386
6	0x3c9cbb63	0.019132322
7	0xbc82a9e6	-0.015950155
8	0xbc55db47	-0.013052768
9	0x3be1a61c	0.006886257
10	0x3c2bdf39	0.010490232
11	0x3cddb151	0.02706209
12	0xbcecffc3	-0.02893055
13	0xbb8344b0	-0.004005991
14	0xbb737b47	-0.0037152336
15	0xbc1fb603	-0.009747985
16	0xbc897b73	-0.016782498
17	0xba9e149f	-0.0012060589
18	0xbcea7a5c	-0.028622799
19	0x3c170096	0.009216448
20	0xbbd441f2	-0.006477588
21	0x3c94982f	0.018138973
22	0x3c40da50	0.0117708
23	0x3af55363	0.0018716868
24	0x3bf56ee6	0.0074900268
25	0xbca2548d	-0.019815708
26	0x3bdfdcf6	0.0068317605
27	0x3c86cc9f	0.016454993
28	0xbccd2d45	-0.025046
29	0xbc60e5f5	-0.013726701
30	0xbb748eef	-0.003731664
31	0x3cd6d847	0.026226176
32	0x3a9b6128	0.0011854516
33	0xbbe756ad	-0.007059893
34	0xbaacb934	-0.0013177753
35	0xbbe85833	-0.0070905923
36	0xbc987f68	-0.01861544
37	0x3caacfbf	0.020851014
38	0xbc007dd1	-0.007842497
39	0xbc31d70f	-0.010854497
40	0x3c29ab4f	0.010355785
41	0x3c6bc1a2	0.014389427
42	0x3cbf1d66	0.023329448
43	0xbb4edb59	-0.0031563847
44	0x3c1bf36e	0.009518487
45	0xbbf88f2a	-0.007585426
46	0xbcc2e22a	-0.023789484
47	0x3c820188	0.01586987
48	0xbc80e58b	-0.015734455
49	0xbc9ad885	-0.018902073
50	0x3c8042e4	0.015656896
51	0x3cd52bf1	0.02602193
52	0xbae9d4f2	-0.0017839952
53	0x3bf939a5	0.0076057487
54	0xbbafd161	-0.005365536
55	0xbca2d336	-0.019876104
56	0xbbcf26ac	-0.0063217487
57	0x3c8fedf5	0.017569521
58	0xbc30f20f	-0.010799899
59	0xbba14148	-0.004921112
60	0xbb08aab6	-0.0020853705
61	0x3cd0e2bd	0.025498742
62	0xbc3332bd	-0.01093739
63	0xbbb8ce68	-0.00563984

transformer.layers.0.linear1.weight f4 [128, 64]
0	0x3da19675	0.078900255
1	0x3ddcd314	0.107824475
2	0xbd9aa96b	-0.07551845
3	0xbd02f9b0	-0.0319764
4	0xbc8b7b0b	-0.017026445
5	0xbb6bafab	-0.003596286
6	0x3d99a2a3	0.075017236
7	0x3c34b67f	0.011029839
8	0x3e0c22f7	0.13685213
9	0xbdb1d849	-0.08683831
10	0xbe235c4c	-0.15953177
11	0xbdad5737	-0.084639005
12	0x3d8d157d	0.06888864
13	0xbc8708bd	-0.016483659
14	0x3ba8c048	0.005149875
15	0xbcf1e133	-0.029526329
16	0xbe05b127	-0.1305586
17	0xbe3b34b6	-0.18281826
18	0x3d9f1345	0.07767347
19	0xbda413a2	-0.08011557
20	0xbdd52245	-0.10406927
21	0xbce837a2	-0.02834684
22	0x3d027db3	0.031858157
23	0xbd4339b6	-0.04766246
24	0xbdd11a26	-0.102100655
25	0x3d4a0900	0.04932499
26	0x3cdc5f9c	0.026901059
27	0xbdbae421	-0.091255434
28	0xbd52caec	-0.051463053
29	0x3c6e100a	0.014530191
30	0xbc4756fc	-0.012166735
31	0xbe502980	-0.20328331
32	0xbd2250e7	-0.039627936
33	0x3d343f5f	0.044005748
34	0xbd95c982	-0.07313825
35	0x3deb01b2	0.11474933
36	0x3d97f14f	0.07419073
37	0xbbe87b20	-0.007094756
38	0xbdeb2943	-0.114824794
39	0x3d65afd2	0.05607588
40	0x3d11b958	0.03557715
41	0xbe3a02e2	-0.18165162
42	0x3d5faa64	0.054605857
43	0xbd9dad5f	-0.076990835
44	0x3d269b9f	0.040675756
45	0xbd929248	-0.07156807
46	0x3def4238	0.11682552
47	0xbc316057	-0.010826192
48	0x3d9f2a6b	0.077717625
49	0x3d592e16	0.053022467
50	0xbd8399c5	-0.064258136
51	0xbd0eef75	-0.034896333
52	0xbd6598f7	-0.05605408
53	0xbcc98f30	-0.02460441
54	0x3e004ad2	0.12528542
55	0xbcc67e30	-0.024230093
56	0x3d8812c6	0.06644206
57	0xbc845c74	-0.016157366
58	0x3d1afad2	0.037836857
59	0x3d1a7364	0.0377077
60	0x3e296f19	0.16546287
61	0xbdda27be	-0.106521115
62	0x3d9fb30b	0.077978216
63	0x3ce0e29a	0.027451802
64	0xbd489acd	-0.048975755
65	0x3eb558c8	0.35419297
66	0x3dfa0b7c	0.12209222
67	0x3dd08ab6	0.10182707
68	0xbdd5c6db	-0.10438319
69	0x3e6a7202	0.22895053
70	0x3c1df6e1	0.00964138
71	0x3d9d337b	0.07675835
72	0xbc9cc5b6	-0.019137245
73	0xbe2578e7	-0.16159402
74	0x3d69a39b	0.057040792
75	0xbe27a11e	-0.16370055
76	0x3d944757	0.072401695
77	0x3c220b1d	0.009890345
78	0xbdaf1177	-0.08548253
79	0xbd2d3e0a	-0.042295493
80	0x3d00dc0a	0.031459846
81	0x3c9f569e	0.019450482
82	0x3e4c2e36	0.19939503
83	0x3d22c84c	0.0397418
84	0xbdaa38fd	-0.08311651
85	0x3e4bc36f	0.19898771
86	0xbdc36e86	-0.09542565
87	0xbd97dc44	-0.07415059
88	0x3ddd8ce2	0.10817887
89	0xbae8d784	-0.0017764424
90	0x3e70ce78	0.23516262
91	0x3d2513f2	0.040302224
92	0x3cff8eac	0.031195961
93	0x3de83532	0.11338271
94	0x3d50b2fa	0.050951935
95	0xbdad9500	-0.08475685
96	0x3e356e1f	0.17717789
97	0xbdb3beb1	-0.08776606
98	0xbe7dcfc5	-0.24786289
99	0x3e6ef146	0.23334226
100	0x3d36a4de	0.044590823
101	0x3d933559	0.0718791
102	0x3d4df764	0.05028476
103	0x3e6211ff	0.22077177
104	0x3b85a45a	0.00407843
105	0xbc612f8b	-0.013744245
106	0x3b575fb2	0.0032863435
107	0xbc9662fd	-0.018357748
108	0x3e0607a9	0.1308886
109	0xbd7d5a3d	-0.061853636
110	0xbcf9123b	-0.0304042
111	0xbe60a68e	-0.21938536
112	0x3e6d4982	0.23172572
113	0xbcbb82ce	-0.022889521
114	0x3db99756	0.09062068
115	0xbd5c7f75	-0.05383249
116	0xbde65dd6	-0.112483665
117	0xbcbce824	-0.023059912
118	0xbdc0a123	-0.094057344
119	0xbdb7dea5	-0.08978013
120	0x3ba6ebe5	0.005094039
121	0xbcd8bd5b	-0.02645748
122	0xbd58e5ad	-0.05295341
123	0x3db1eac3	0.08687355
124	0x3e9c50ab	0.30530295
125	0xbd181300	-0.037127495
126	0xbd40de2c	-0.04708688
127	0x3d386f75	0.04502817
128	0x3d8b6d0d	0.06807909
129	0x3d96bc5c	0.073601454
130	0x3d47fa05	0.04882242
131	0xbde5e1de	-0.11224721
132	0x3d89932d	0.06717525
133	0x3d393f76	0.045226537
134	0xbe13da94	-0.1443885
135	0x3e19e3ce	0.15028307
136	0x3d36986a	0.044578947
137	0xbc72e283	-0.014824512
138	0x3bfe3633	0.007757926
139	0xbe114dca	-0.1418983
140	0xbd2846b5	-0.041083056
141	0xbd1dd0ca	-0.038529195
142	0xbda5204d	-0.080628015
143	0x3e270c85	0.1631337
144	0xbdc848f1	-0.097795375
145	0x3cd989d5	0.026554981
146	0xbd86d908	-0.06584364
147	0x3cd53952	0.026028309
148	0x3d8e4bb3	0.06948032
149	0xbc325de9	-0.010886648
150	0xbc92ffda	-0.017944265
151	0xbd6bb2e1	-0.05754364
152	0xbdb16f81	-0.08663846
153	0xbd14cef4	-0.03633018
154	0x3dc03a37	0.093861036
155	0xbd68080e	-0.056648307
156	0x3dcffe7b	0.1015596
157	0x3c3c7b2c	0.011503976
158	0xbd95d056	-0.073151276
159	0x3d4d1e54	0.05007775
160	0x3b2d57d4	0.0026450055
161	0x3de2cd56	0.11074321
162	0xbdabeb49	-0.083944865
163	0xbc9b3ef7	-0.018950922
164	0xbd015355	-0.031573612
165	0x39eccbb6	0.00045165204
166	0x3d82aff8	0.063812196
167	0x3d3f1d55	0.046658833
168	0x3d9c89bb	0.076434575
169	0x3dcc35e7	0.099712186
170	0x3d3bb4e3	0.045826804
171	0xbd88fa74	-0.06688395
172	0x3d9e3712	0.077253476
173	0x3d203814	0.03911598
174	0x3daef5b9	0.085429616
175	0xbde57769	-0.11204416
176	0xbd00c9bb	-0.031442385
177	0x3cbcd916	0.023052733
178	0x3da9cf10	0.08291447
179	0xbd8ab5db	-0.067729674
180	0xbdc0a6b8	-0.09406799
181	0xbd1c67a5	-0.03818478
182	0xbd4bce54	-0.049757317
183	0x3d2ac4a6	0.041691445
184	0xbdc358e1	-0.09538437
185	0xbd4c392a	-0.049859203
186	0x3ca706b2	0.020388935
187	0x3da70d1b	0.081567965
188	0xbd614fbc	-0.05500768
189	0xbdb59992	-0.08867182
190	0xbdbcbfa0	-0.09216237
191	0xbcd3e112	-0.025864158
192	0xbdbfa920	-0.0935843
193	0x3d7219a9	0.059106503
194	0xbcda8bf7	-0.026678069
195	0x3d813d05	0.06310467
196	0xbe08556a	-0.13313833
197	0x3d1247e4	0.03571309
198	0x3db38228	0.0876506
199	0x3c049b15	0.008093615
200	0xbd84a1c6	-0.06476168
201	0x3d0e43bf	0.034732576
202	0x3d9383f3	0.07202902
203	0x3cb735c7	0.02236451
204	0xbd70aacd	-0.05875664
205	0x3d7b1d71	0.061307374
206	0x3d732a39	0.05936644
207	0xbd641324	-0.055682316
208	0x3d2a0259	0.041506145
209	0x3da8de6a	0.08245547
210	0x3d36f9a9	0.04467169
211	0xbd99c94a	-0.07509096
212	0x3d5bdffa	0.053680398
213	0xbc5ed40b	-0.01360036
214	0x3d323f16	0.043517195
215	0x3cce5ed0	0.025191694
216	0xbdbce9c7	-0.09224277
217	0x3ba99083	0.005174698
218	0xbdb43903	-0.087999366
219	0xbdb40651	-0.08790267
220	0x3d8b1f95	0.06793133
221	0xbddacd84	-0.1068373
222	0x3d45a5ae	0.048253708
223	0xbd1c1f9f	-0.038116094
224	0x3d80cea8	0.062894166
225	0x3ddf2b60	0.10896945
226	0x3dde77ff	0.10862731
227	0x3db669c4	0.08906892
228	0x3d9db709	0.07700927
229	0x3de7c112	0.11316122
230	0x3bdfd342	0.006830604
231	0x3ddbce55	0.10732714
232	0xbc83eecf	-0.016105084
233	0xbdb771ab	-0.08957227
234	0xba3c389f	-0.0007180068
235	0x3dc95f09	0.0983258
236	0xbdddc886	-0.108292624
237	0x3cb63fcf	0.022247223
238	0x3d285228	0.041093975
239	0xbced44ca	-0.028963465
240	0x3da5b657	0.08091419
241	0xbde48c8b	-0.11159619
242	0x3caabbf3	0.020841574
243	0x3d0eeed6	0.03489574
244	0x3e03b77a	0.1286296
245	0x3d8e667c	0.06953141
246	0x3c932ec3	0.017966634
247	0xbd8cebde	-0.068809256
248	0xbd116748	-0.035498887
249	0x3d681321	0.056658868
250	0x3d3c0d1b	0.045910936
251	0xbdc5a651	-0.09650863
252	0xbdadc439	-0.08484692
253	0x3d73c5fd	0.05951499
254	0xbda2a22f	-0.0794109
255	0x3d89b75b	0.067244254

transformer.layers.0.linear1.bias f4 [128]
0	0x3d6d2012	0.057891913
1	0x3d6ff536	0.05858346
2	0xbd05f8e0	-0.03270805
3	0xbdeac346	-0.11463027
4	0xbdea0fc2	-0.11428787
5	0xbdc74e1b	-0.09731694
6	0xbdcd20ba	-0.10016008
7	0xbd2bcc42	-0.041942842
8	0x3d812cc8	0.063073695
9	0xbd35c970	-0.04438156
10	0xbde8550e	-0.11344348
11	0xbd52dd9d	-0.05148088
12	0x3c96dea3	0.018416708
13	0xbd7a9e12	-0.061185904
14	0x3db45f66	0.08807258
15	0xbda9ca9c	-0.08290598
16	0x3da00122	0.07812716
17	0x3d0539d0	0.032525837
18	0xbc96fcc4	-0.018431075
19	0xbdfee6f2	-0.12446393
20	0x3bf94798	0.0076074116
21	0xbd0e7b7e	-0.03478574
22	0xbb0e1b05	-0.0021683585
23	0xbc3522fc	-0.011055704
24	0x3daddd15	0.08489434
25	0x3c7ff988	0.015623458
26	0xbbe79ee2	-0.007068501
27	0x3d088d56	0.033337913
28	0x3d969fc7	0.07354694
29	0xbe009749	-0.1255771
30	0x3cea5efe	0.028609749
31	0x3d3546bc	0.04425691
32	0xbd0ad205	-0.033891696
33	0x3d29a5f7	0.041418042
34	0x3c953317	0.018212838
35	0xbd18580a	-0.037193336
36	0xbddff3bf	-0.10935163
37	0xbd21b3bd	-0.039478052
38	0xbb59a790	-0.0033211447
39	0xbde14083	-0.10998633
40	0xbdebe43e	-0.11518143
41	0xbdda57ce	-0.10661279
42	0xbc98bf75	-0.018645981
43	0x3d9b86bb	0.07594057
44	0x3d433b6e	0.0476641
45	0xbdc3eae8	-0.09566289
46	0xbd2eb647	-0.042654302
47	0xbd351ee7	-0.044218924
48	0x3c978c95	0.018499652
49	0xbbfcd5af	-0.0077159028
50	0x3d575ff0	0.052581728
51	0x3da6b31c	0.08139631
52	0xbc315ce3	-0.010825369
53	0xbd6d0c13	-0.057872843
54	0x3d4943ed	0.049137045
55	0x3d090669	0.03345338
56	0x3d867429	0.065651245
57	0x3d5d2c3c	0.053997263
58	0x3bbf4946	0.0058375923
59	0x3a544deb	0.0008098769
60	0xbd5ddada	-0.05416379
61	0x3dccb8fa	0.09996219
62	0xbd8f1432	-0.06986274
63	0x3d7ce34e	0.061740212
64	0xbd63314c	-0.055466935
65	0xbd1704c0	-0.036869764
66	0xbcc978eb	-0.024593791
67	0xbd84427d	-0.06457994
68	0xbd870b1e	-0.06593917
69	0xbdbf2e2d	-0.09334979
70	0xbe198103	-0.1499062
71	0xbded2dfe	-0.11581038
72	0x3dcc4b5a	0.0997531
73	0x3b9df948	0.0048209764
74	0xbdef4187	-0.1168242
75	0xbe0b2fa9	-0.135924
76	0x3d8315d4	0.06400648
77	0xbd017085	-0.031601448
78	0x3d3c77f7	0.046012845
79	0xbde0694e	-0.10957585
80	0xbe014994	-0.12625724
81	0xbdb2f2e4	-0.08737734
82	0xbdc76c32	-0.097374335
83	0xbd67b959	-0.056573246
84	0x3c172cc7	0.009226984
85	0xbdf375cb	-0.118877016
86	0xbc809204	-0.015694626
87	0xbd53409c	-0.05157529
88	0x3ce4c6d6	0.027926844
89	0xbce31f51	-0.027724894
90	0xbdcfe1c4	-0.10150483
91	0x3d2d8760	0.04236543
92	0xbd84bd4f	-0.0648142
93	0xbd91f82e	-0.07127415
94	0xbdd50a3d	-0.104023434
95	0xbd96d97b	-0.073657
96	0x3c855db7	0.016280038
97	0xbdacf992	-0.08446039
98	0xbdaccf27	-0.08437949
99	0xbd8a1278	-0.06741804
100	0x3da17ca1	0.07885099
101	0xbd671e19	-0.056425188
102	0x3d8e6087	0.06952005
103	0xbc8efefa	-0.017455567
104	0x3b2bebd8	0.0026233103
105	0xbd78256f	-0.060582574
106	0xbe01ba2a	-0.12668672
107	0x3d067858	0.032829612
108	0x3d16b5d7	0.03679451
109	0xbdb59fa9	-0.088683434
110	0xbd47023c	-0.048586115
111	0xbdf9772c	-0.12180933
112	0x3d4a56b8	0.049399108
113	0xbdd626be	-0.10456608
114	0xbd09c6a8	-0.03363672
115	0xbc1c9926	-0.009557998
116	0x3c836373	0.016038632
117	0xbd448ee9	-0.047987852
118	0x3da32574	0.07966128
119	0xbd49c0c9	-0.04925612
120	0x3bfda1f7	0.007740255
121	0xbd40a984	-0.047036663
122	0x3ce63543	0.028101569
123	0xbe0f0462	-0.13966516
124	0xbd899fdf	-0.06719946
125	0x3dbbd37c	0.09171197
126	0x3da6cfd1	0.081451066
127	0x3d377171	0.04478592

transformer.layers.0.linear2.weight f4 [64, 128]
0	0x3e10f4c5	0.14155872
1	0xbdad80f2	-0.0847186
2	0x3da3a34d	0.079901315
3	0xbd64fe1c	-0.0559064
4	0x3dba25c7	0.09089237
5	0x3b68967f	0.0035490093
6	0x3b891aa5	0.0041840845
7	0x3bc74e84	0.006082358
8	0x3cee2f84	0.029075392
9	0x3d1e7a02	0.038690574
10	0xbe3b6ef2	-0.18304041
11	0xbdde028e	-0.10840331
12	0x3de71ca2	0.11284758
13	0xbcfe4f7a	-0.031043757
14	0xbccdb997	-0.02511291
15	0xbd90fab5	-0.070790686
16	0x3a611766	0.00085865555
17	0x3d5bd968	0.05367413
18	0x3c753d4d	0.0149682285
19	0x3d4685ee	0.04846757
20	0x3e04f503	0.1298409
21	0x3cca2ccf	0.02467957
22	0xbd5399a8	-0.05166021
23	0xbc8b0a32	-0.016972635
24	0xbcc676f5	-0.024226645
25	0xbd324418	-0.04352197
26	0xbd41bc2f	-0.047298606
27	0xbd7c1b0b	-0.061549228
28	0x3d4c2daf	0.049848255
29	0xbd08f0dd	-0.03343283
30	0x3d38b1d2	0.045091458
31	0xbc012c09	-0.007884034
32	0xbd1cc70c	-0.038275763
33	0xbd809a7d	-0.06279466
34	0xbd8319fc	-0.064014405
35	0xbd15f072	-0.03660626
36	0xbdbd64cb	-0.0924774
37	0xbd9254b4	-0.07145062
38	0xbd3d4200	-0.04620552
39	0xbce1897e	-0.027531382
40	0x3cf3d575	0.02976487
41	0xbd437cb7	-0.04772636
42	0x3d3685b6	0.04456111
43	0xbd2ea5d9	-0.042638633
44	0x3b7b6178	0.0038357656
45	0xbca30de1	-0.019904079
46	0xbdc9a6da	-0.098462775
47	0xbd5eda7e	-0.05440759
48	0xbccb3074	-0.024803378
49	0xbd916273	-0.07098856
50	0x3d9edb5a	0.07756682
51	0xbcab0118	-0.020874545
52	0xbb0606e1	-0.0020450877
53	0xbd39c550	-0.045354187
54	0x3d86d109	0.06582839
55	0xbb80f7bb	-0.003935782
56	0x3d98df74	0.07464495
57	0xbd03657d	-0.03207921
58	0x3de04439	0.109505124
59	0x3d0d6672	0.034521528
60	0x3ca4c713	0.020114457
61	0x3bdbdb91	0.006709524
62	0x3d456ac0	0.048197508
63	0xbd1f2c96	-0.03886088
64	0xbd34dea6	-0.044157647
65	0xbde43b3e	-0.11144112
66	0xbce0ea57	-0.027455492
67	0xbca11bec	-0.019666635
68	0xbd820890	-0.063492894
69	0x3d8d257e	0.06891917
70	0xbce69f84	-0.028152235
71	0xbd4df316	-0.050280653
72	0xbd43c918	-0.0477992
73	0x3d4ffb58	0.05077681
74	0xbd21b60c	-0.039480254
75	0x3db9508e	0.09048568
76	0xbe021242	-0.12702277
77	0x3ab18a06	0.0013545163
78	0xbdffe70a	-0.12495239
79	0x3da0ce10	0.07851803
80	0xbc89e5b9	-0.016833173
81	0x3d9caee9	0.07650549
82	0x3d53176e	0.051536016
83	0xbb3896d1	-0.0028166065
84	0xbd971509	-0.07377059
85	0x3cb5dff8	0.022201523
86	0x3cd06fe9	0.025443988
87	0xbe11e2b4	-0.14246637
88	0xbd2f5035	-0.0428011
89	0x3de0b75a	0.109724715
90	0x3c69ec96	0.014277598
91	0xbc0aca62	-0.008471103
92	0xbdbe716b	-0.092989765
93	0xbd9f8d05	-0.07790569
94	0x3cf69220	0.030098975
95	0x3d4b9211	0.049699847
96	0x3d6ee072	0.058319516
97	0x3da7b8c4	0.08189538
98	0x3d3e76c0	0.046499968
99	0x3bf41de7	0.0074498537
100	0xbce72a23	-0.028218335
101	0x3de05468	0.10953599
102	0x3d8dcca4	0.06923798
103	0x3d93b850	0.07212889
104	0xbd24b282	-0.0402093
105	0x3cce4890	0.025181085
106	0xbc8ca21c	-0.017167144
107	0x3d9a5dc9	0.07537419
108	0x3dcb1914	0.09916893
109	0x3e0ea6ec	0.13930863
110	0xbb95a186	-0.0045663742
111	0xbe0ae983	-0.1356564
112	0xbd83547e	-0.064126
113	0xbc9fc6c5	-0.01950396
114	0xbdfdd6df	-0.12394499
115	0x3d4bc24c	0.049745843
116	0xbce1db39	-0.027570354
117	0xbd9f54c8	-0.077798426
118	0x3da1f63c	0.079082936
119	0x3c13efbd	0.009029326
120	0xbd9d8144	-0.07690671
121	0xbbf8d5d7	-0.007593851
122	0x3b022762	0.00198599
123	0x3dfcfd5e	0.123530135
124	0xbdf01cf3	-0.117242716
125	0xbc21f4d3	-0.009885031
126	0xbc985ea1	-0.01859981
127	0xbe3de1e5	-0.18543203
128	0xbdc8d933	-0.098070525
129	0xbe124fe4	-0.14288288
130	0x3d125faf	0.035735782
131	0x3d9caad7	0.076497726
132	0xbdc57562	-0.096415296
133	0x3cba3a15	0.022732774
134	0x3da0b65e	0.07847284
135	0x3dcfde77	0.10149854
136	0xbd3a201e	-0.045440786
137	0x3da852ed	0.08218942
138	0x3e410624	0.18849999
139	0x3d486536	0.048924647
140	0xbdb39d45	-0.08770231
141	0x3d600b59	0.054698322
142	0x3bbf545e	0.005838915
143	0x3de6793e	0.11253594
144	0xbbc92062	-0.0061378935
145	0xbd393f9c	-0.04522668
146	0xbc132104	-0.0089800395
147	0x3d449e33	0.048002433
148	0xbdbabf44	-0.09118512
149	0x3dd98570	0.10621154
150	0x3d93252a	0.07184823
151	0x3c0d3b0d	0.008620036
152	0xbcc5e1fb	-0.024155607
153	0xbdbc87ec	-0.092056125
154	0xbd842eb7	-0.06454223
155	0x3cfbeedc	0.030753545
156	0xbb8a664e	-0.0042236215
157	0xbcc84ce1	-0.024450721
158	0xbe202fe7	-0.15643273
159	0xbc81e9dd	-0.015858585
160	0x3c6d7e32	0.014495419
161	0x3b5355ea	0.0032247254
162	0xb9b3ae8d	-0.0003427159
163	0xbd24501e	-0.04011547
164	0x3995ce4e	0.00028573204
165	0x3d8527c6	0.06501727
166	0x3d9e1665	0.07719115
167	0xbdbb56d5	-0.09147421
168	0x3d08d409	0.033405337
169	0x3cc4d38e	0.024026658
170	0x3d18fab5	0.037348468
171	0x3d4fbde8	0.050718218
172	0x3da1bb03	0.07896998
173	0x3de2b139	0.11068959
174	0xbc72bcc0	-0.014815509
175	0xbd8f8a96	-0.07008855
176	0xbbe88b3e	-0.007096677
177	0xbcb957b5	-0.02262483
178	0xbd248359	-0.040164325
179	0xbd8fac40	-0.07015276
180	0x3d900dbe	0.07033871
181	0x3dceba04	0.100940734
182	0xbbbd394d	-0.005774653
183	0xbd0c5b08	-0.0342665
184	0xbd9cc45d	-0.07654641
185	0xbd86e631	-0.06586874
186	0xbe0e12c7	-0.1387435
187	0xbdb0d5d0	-0.086345315
188	0x3ddd43f0	0.10803974
189	0xbc05a459	-0.008156859
190	0x3c9da1c3	0.019242173
191	0x3d2f9dae	0.042874984
192	0x3e137d6f	0.14403318
193	0x3dd945ef	0.10609042
194	0xbc15894e	-0.009126974
195	0xbc3a83ae	-0.011383934
196	0x3d2ac923	0.041695725
197	0xbce5b637	-0.028040988
198	0x3d07da08	0.033166915
199	0x3e026a75	0.12735923
200	0x3e2e62b1	0.17029835
201	0xbd336f21	-0.043807153
202	0x3d707eef	0.058714803
203	0xbdaf7924	-0.085680276
204	0x3dc8fc87	0.09813791
205	0xbd83fc7d	-0.06444643
206	0x3c4917cf	0.012273743
207	0xbdcd5aef	-0.1002711
208	0xbdd9b16f	-0.10629546
209	0x3d86a975	0.0657529
210	0xbd52486b	-0.051338594
211	0xbc7e2f36	-0.015514186
212	0xbb6abb46	-0.003581719
213	0x3d41baaf	0.047297176
214	0x3d2d7bd6	0.042354427
215	0x3c8bd91e	0.017071303
216	0x3cc0b483	0.023523575
217	0xbdec7670	-0.11546028
218	0xbdc9d9f9	-0.09856028
219	0x3c8097da	0.015697408
220	0x3da5a70b	0.080885015
221	0x3dbb38d1	0.09141696
222	0xbc783ebb	-0.015151675
223	0xbd1c71fe	-0.03819465
224	0xbd29887d	-0.04138993
225	0x3d9daa0f	0.07698452
226	0xbdb0065f	-0.08594965
227	0x3caa568e	0.020793226
228	0x3c85b76e	0.016322818
229	0xbd5e7d28	-0.054318577
230	0xbdc2b001	-0.09506226
231	0x3cf6fef1	0.030150862
232	0x3cd82b88	0.026387945
233	0x3d365770	0.04451698
234	0x3e133417	0.1437534
235	0x3d009699	0.03139362
236	0xbd251adc	-0.04030882
237	0xbe1b5ff2	-0.15173319
238	0x3d954b20	0.072897196
239	0x3d39b101	0.04533482
240	0xbd86c1e5	-0.06579951
241	0xbd676554	-0.05649312
242	0x3da40ba7	0.08010035
243	0xbd15a8d2	-0.036537953
244	0x3dcf5e45	0.10125402
245	0xbd7ecc0e	-0.06220632
246	0xbdd3f9f2	-0.10350408
247	0x3c9bc0b8	0.019012794
248	0xbbbf24d3	-0.005833247
249	0xbd7bcbdf	-0.061473724
250	0x3d2805d6	0.04102119
251	0xbbe182b5	-0.0068820366
252	0x3e05e3a2	0.13075116
253	0x3d958904	0.07301524
254	0xbd10680f	-0.035255488
255	0x3e1799ca	0.1480476

transformer.layers.0.linear2.bias f4 [64]
0	0x3cefe287	0.029282821
1	0xbcfd2f05	-0.03090621
2	0x3c91b31b	0.0177856
3	0xbd7da6b4	-0.06192656
4	0x3d9f5f70	0.07781875
5	0x3d8e78ae	0.069566116
6	0x3d4ef9fb	0.05053137
7	0xbcd62764	-0.02614183
8	0xbd2ee740	-0.042701006
9	0x3dbb5124	0.09146336
10	0x3d4cf41a	0.05003748
11	0xbd01fb19	-0.031733606
12	0x3d2e6b65	0.04258289
13	0xbb4d0e1e	-0.0031288932
14	0xbc1ae29f	-0.009453445
15	0x3d1ea8a8	0.038735062
16	0xbd388a44	-0.045053735
17	0xbd35a9ca	-0.044351377
18	0xbd5a4d91	-0.05329663
19	0xbd6814be	-0.056660406
20	0xbc3b02a1	-0.011414201
21	0x3da11cd4	0.07866827
22	0xbcd5a60b	-0.026080152
23	0xbd3f2e0a	-0.046674766
24	0xbc896105	-0.016769895
25	0xbd837b0d	-0.064199544
26	0xbd3ffd9b	-0.046872716
27	0x3b38fac4	0.002822564
28	0xbdb83150	-0.089937806
29	0x3c624617	0.013810656
30	0x3cc0540b	0.023477575
31	0xbccca345	-0.024980197
32	0x3c67ae72	0.014140712
33	0x3b901d7a	0.004398045
34	0xbd5b2d3e	-0.053509943
35	0xbcebb5cc	-0.028773211
36	0xbd15a2d1	-0.036532227
37	0x3d9686bd	0.07349918
38	0x3b53e2a1	0.0032331126
39	0xbbfef1f9	-0.00778031
40	0x3d9e16fd	0.077192284
41	0x3ce17548	0.027521744
42	0x3c75400f	0.014968886
43	0xbcc13d17	-0.0235887
44	0x3d0c6342	0.034274347
45	0xbd96b25b	-0.07358237
46	0x3db02d5b	0.08602401
47	0x3d4d5910	0.050133765
48	0xbd4abe61	-0.049497966
49	0x3d48f4a5	0.049061436
50	0x3d23ff44	0.040038362
51	0x3d700059	0.05859408
52	0x3c75d9ad	0.015005511
53	0xbd58617b	-0.05282734
54	0x3d92d7e9	0.07170088
55	0xbd38b194	-0.045091227
56	0xbd9d7820	-0.07688928
57	0x3d4aaf33	0.04948349
58	0xbd6db9b8	-0.058038443
59	0xbd6d3a5e	-0.05791699
60	0xbc9129d2	-0.017720137
61	0xbd23d29a	-0.039995767
62	0x3d473803	0.0486374
63	0xbc564ddc	-0.013080087

transformer.layers.0.norm1.weight f4 [64]
0	0x3f8826e1	1.0636865
1	0x3f738148	0.9511914
2	0x3f7d444c	0.9893234
3	0x3f808b91	1.0042592
4	0x3f7f1c0f	0.9965219
5	0x3f822155	1.0166422
6	0x3f884cb7	1.0648412
7	0x3f90de78	1.1317892
8	0x3f7c3376	0.98516023
9	0x3f7667ec	0.9625232
10	0x3f8a30bb	1.0796121
11	0x3f84dca1	1.0379831
12	0x3f99ec36	1.2025211
13	0x3f7a39ff	0.97744745
14	0x3f85b59c	1.0446048
15	0x3f8570f6	1.0425098
16	0x3f9584ec	1.168119
17	0x3f84a99f	1.0364264
18	0x3f794bc7	0.9738125
19	0x3f9eecab	1.2415975
20	0x3f854342	1.041115
21	0x3f7d67c0	0.98986435
22	0x3f816309	1.0108348
23	0x3f7ba361	0.9829617
24	0x3f7faf41	0.9987679
25	0x3f7512d2	0.9573184
26	0x3f858a15	1.0432764
27	0x3f7eac3e	0.9948157
28	0x3f7b4723	0.9815542
29	0x3f7d66da	0.98985064
30	0x3f738d41	0.9513741
31	0x3f805918	1.0027189
32	0x3f804fb0	1.0024319
33	0x3f84dfc8	1.0380793
34	0x3f8c0b34	1.0940919
35	0x3f7cbfb9	0.98730046
36	0x3f710b5e	0.9415797
37	0x3f7d5db9	0.98971134
38	0x3f73c152	0.9521686
39	0x3f74fed4	0.95701337
40	0x3f7e2c30	0.99286175
41	0x3f8e7b6c	1.1131415
42	0x3f73638a	0.9507376
43	0x3f8303e9	1.0235568
44	0x3f677ee1	0.90427977
45	0x3f87a9fa	1.0598748
46	0x3f744d23	0.954302
47	0x3f6ecf97	0.93285507
48	0x3f779582	0.96712506
49	0x3f7bea3a	0.98404276
50	0x3f791111	0.97291666
51	0x3f78756a	0.9705416
52	0x3f804359	1.0020553
53	0x3f80fafd	1.0076596
54	0x3f8776b9	1.0583106
55	0x3f79e4b8	0.9761462
56	0x3f830acd	1.0237671
57	0x3f767d98	0.9628539
58	0x3f79eaad	0.9762371
59	0x3f934cbf	1.1507796
60	0x3f72f855	0.94910175
61	0x3f73d31b	0.95243996
62	0x3f887a8d	1.06624
63	0x3f81151b	1.0084566
